DDQN_Model.pt (torch, 735751 bytes, 10 tensors)

fc1.weight f4 [64, 8]
-0.17897289 0.09724157 -15.323884 -0.5807978 0.2037997 -0.4761375 0.42470384 0.3212851
-2.9279993 0.048410013 -0.30975682 -0.27882266 0.010892542 -0.22662629 -0.05383218 0.074586615
-0.31996608 -0.2899941 -0.12983334 -0.06356066 -0.15249899 0.14792639 -0.21175385 -0.028751964
0.43791527 -0.13013561 21.836535 -7.013392 0.00061605836 0.004062109 -0.0543209 0.026361594
-0.18104279 0.18096027 0.07825881 0.2697861 0.005846858 -0.2834815 0.03780076 0.07153875
-0.15097232 -0.17352794 0.3377826 -0.18828064 0.041063506 0.1355237 -0.1315919 0.11127172
-0.33716094 -0.0920201 -0.2227949 -0.19196278 -0.15056261 -0.20503739 0.4447332 -0.27273226
0.1716902 -0.28814986 -0.1464005 -0.23934996 -0.19788463 -0.18939807 0.17179605 -0.15601869
0.49728543 0.073510066 5.05305 -14.565153 0.37616438 -0.18395606 -0.34529883 0.21532497
-0.12242888 -0.03763869 -14.8295355 0.55064535 -0.76908475 0.19265722 -0.5428295 0.1038399
-1.0519961 -0.085061304 -7.269569 1.9392934 -1.0556529 0.24148667 0.024633463 -0.10653121
-0.049193338 -0.07065927 -15.904289 -0.5895222 0.14159188 0.13943122 -0.45301047 0.2896535
0.12160465 -0.2286189 -13.703507 -1.8587494 -0.28603986 -0.42821708 -1.486575 -0.74114156
0.6739029 1.6924874 2.705278 7.2067304 -0.12098585 -0.0043065785 0.18298802 0.0630451
-0.025198258 0.22780609 0.27313584 -0.046146683 -0.13874766 -0.13884027 -0.2547847 0.07708529
-0.62560534 1.0311874 -4.818474 10.998567 0.103808574 -0.009340193 -0.08979015 -0.006760539
0.86842155 -0.91643316 5.1910415 11.705222 0.14190204 0.040356085 0.0387015 0.040268864
-0.35498402 0.11125363 0.1647667 0.119813204 0.093805045 0.18605626 -0.10700828 0.1497116
0.46624243 1.3184736 3.587887 5.812091 0.090449564 0.14514029 -0.2506259 -0.20271163
-6.4849977 0.41281524 -4.606653 -0.38649485 0.14198849 0.13961305 -0.9462614 -0.02385513
-1.5629901 0.13897358 -0.42912695 -0.096106835 -0.29017338 0.22006907 -0.4866828 -0.6779139
1.4133569 0.18766414 5.6767206 -3.8421433 0.18344699 -0.0026209345 0.18306331 -0.13197291
-0.19895296 -0.3375135 -0.09611897 0.18353678 0.28553972 0.034776278 0.005336767 -0.23742571
-0.1863742 0.2158232 -0.327254 0.043953687 0.2520661 -0.34053797 -0.28281036 0.27943888
-0.23208001 0.12033644 0.005342573 -0.3470705 0.056686968 -0.3328792 -0.24746984 0.12125063
0.24398616 -0.018591255 -0.028624237 -0.15380903 -0.12298222 -0.07124722 -0.188386 0.1944867
0.08107148 0.19481003 -0.2488338 -0.05659793 -0.18369952 -0.21548308 -0.082852796 -0.3768564
0.34604672 -0.41946432 -12.956833 -4.631726 0.06714947 0.14918667 0.2823964 0.08834241
-0.03101337 -0.34833577 0.07530239 -0.17630187 -0.023147374 0.3038409 -0.33910897 -0.29551393
-2.5006871 -0.37862515 -0.40658063 -1.4046495 -0.167219 -0.097681336 0.44382194 0.24079233
-3.8923867 -0.0444315 -4.9598055 1.2972354 0.10202759 0.022788871 0.028576938 0.54510117
-1.9222736 0.97855914 -8.800729 0.11825768 0.90973175 -0.13650902 -0.38714337 -0.09458466
00000000: ab44 37be 9726 c73d a12e 75c1 2aaf 14bf
00000010: deb0 503e 4bc8 f3be c872 d93e 7b7f a43e
00000020: 5764 3bc0 9449 463d 7298 9ebe d8c1 8ebe
00000030: a276 323c b910 68be 227f 5cbd dec0 983d
00000040: 98d2 a3be 1b7a 94be 08f3 04be 172c 82bd
00000050: b228 1cbe 047a 173e 00d6 58be 3d89 ebbc
00000060: 6e36 e03e 4542 05be 39b1 ae41 b56d e0c0
00000070: fa7e 213a 711b 853b 987f 5ebd 45f4 d73c
00000080: 4863 39be a64d 393e 2846 a03d 6721 8a3e
00000090: 0097 bf3b 7d24 91be f8d4 1a3d e882 923d
000000a0: 7d98 1abe 4fb1 31be d7f1 ac3e a4cc 40be
000000b0: 3532 283d bac6 0a3e 07c0 06be 6de2 e33d
000000c0: 5ca0 acbe 0975 bcbd 5924 64be e491 44be
000000d0: 162d 1abe 52f5 51be 12b4 e33e 90a3 8bbe
000000e0: 8ecf 2f3e 6188 93be 03ea 15be 2818 75be
000000f0: 45a2 4abe 91f1 41be 4eeb 2f3e 5dc3 1fbe
00000100: 329c fe3e 728c 963d 96b2 a140 de0a 69c1
00000110: 9e98 c03e fa5e 3cbe 02cb b0be 267e 5c3e
00000120: febb fabd 072b 1abd c745 6dc1 18f7 0c3f
00000130: bde2 44bf ef47 453e e0f6 0abf 03aa d43d
00000140: cfa7 86bf 9f34 aebd 4fa0 e8c0 c43a f83f
00000150: a21f 87bf 4848 773e 1ecc c93c 092d dabd
00000160: f47e 49bd cfb5 90bd f877 7ec1 edea 16bf
00000170: 76fd 103e 0fc7 0e3e fdf0 e7be 774d 943e
00000180: dc0b f93d 131b 6abe 9141 5bc1 80eb edbf
00000190: d173 92be 453f dbbe 1748 bebf 74bb 3dbf
000001a0: e784 2c3f 6da3 d83f 4623 2d40 899d e640
000001b0: 6ec7 f7bd 331e 8dbb 3661 3b3e ca1d 813d
000001c0: 946c cebc 0046 693e 76d8 8b3e 4e04 3dbd
000001d0: de13 0ebe 252c 0ebe 2473 82be e4de 9d3d
000001e0: ac27 20bf f3fd 833f f030 9ac0 21fa 2f41
000001f0: 9799 d43d 9c07 19bc e6e3 b7bd 8387 ddbb
00000200: e050 5e3f 5d9b 6abf 031d a640 9748 3b41
00000210: c54e 113e 6c4c 253d 7785 1e3d f7f0 243d
00000220: 77c0 b5be f1d8 e33d 9ab8 283e a060 f53d
00000230: dc1c c03d 8885 3e3e 2827 dbbd ff4d 193e
00000240: 54b7 ee3e bec3 a83f f19f 6540 a6fc b940
00000250: 9f3d b93d a89f 143e 0a52 80be a393 4fbe
00000260: 1a85 cfc0 855c d33e b469 93c0 a7e2 c5be
00000270: 6e65 113e b9f6 0e3e 303e 72bf d56b c3bc
00000280: 0f10 c8bf 174f 0e3e 87b6 dbbe a9d3 c4bd
00000290: 9b91 94be c959 613e 7d2e f9be c48b 2dbf
000002a0: e1e8 b43f 072b 403e b2a7 b540 ade5 75c0
000002b0: 87d9 3b3e fcc3 2bbb f374 3b3e e823 07be
000002c0: 53ba 4bbe 92ce acbe 06da c4bd 11f1 3b3e
000002d0: 4332 923e 9271 0e3d 0ce0 ae3b ba1f 73be
000002e0: e1d8 3ebe c200 5d3e d68d a7be c808 343d
000002f0: cf0e 813e fe5a aebe 85cc 90be 9d12 8f3e
00000300: 62a6 6dbe f472 f63d c010 af3b 39b3 b1be
00000310: 9830 683d 246f aabe bc68 7dbe 4052 f83d
00000320: 82d7 793e b04c 98bc 607d eabc 1d80 1dbe
00000330: 1ade fbbd 10ea 91bd 42e8 40be 8627 473e
00000340: ce08 a63d 487c 473e 4ace 7ebe 3bd3 67bd
00000350: ba1b 3cbe 99a7 5cbe baae a9bd 52f3 c0be
00000360: 092d b13e 07c4 d6be 304f 4fc1 1937 94c0
00000370: a985 893d 64c4 183e 4396 903e deec b43d
00000380: c00f febc 1159 b2be 2438 9a3d 7a88 34be
00000390: 909f bdbc 0991 9b3e b19f adbe 9a4d 97be
000003a0: 420b 20c0 28db c1be 562b d0be 8ecb b3bf
000003b0: 753b 2bbe 270d c8bd a13c e33e 4492 763e
000003c0: dd1c 79c0 cefd 35bd bab6 9ec0 cf0b a63f
000003d0: d7f3 d03d baaf ba3c 2f1a ea3c c08b 0b3f
000003e0: 100d f6bf da82 7a3f c9cf 0cc1 1531 f23d
000003f0: 2ee4 683f 05c9 0bbe a837 c6be 9ab5 c1bd

fc1.bias f4 [64]
0.21379296 0.007091993 -0.088401094 -0.16346739 -0.18040988 -0.1181133 0.05392388 -0.2993257
-0.07553114 0.102069445 0.60993433 -0.17864633 0.06348796 -0.91720366 -0.17190757 -0.303778
0.15958661 -0.32797387 -0.715984 0.6720783 -0.23434784 -1.1315219 -0.11101905 -0.23086977
-0.34650016 -0.3242414 -0.2585485 0.08557755 -0.2636316 0.14080532 0.89248437 -0.008427863
-0.024133531 0.6978092 -0.021852804 0.013508863 -0.34767935 0.14109382 0.24782246 0.50241756
0.025813567 -0.21243568 -0.12121631 -0.06746672 0.2732087 -0.32244506 -0.043336075 0.680824
-0.20270683 -0.19370382 0.04906939 0.7578331 -0.10521902 0.04046607 -0.24537507 -0.15463126
0.35528848 -0.34949917 0.11284868 0.8976595 -0.1084024 -0.10575074 -0.082088396 0.103568606
00000000: 8bec 5a3e f363 e83b a20b b5bd ff63 27be
00000010: 5ebd 38be 63e5 f1bd 49df 5c3d 3841 99be
00000020: 12b0 9abd c909 d13d a824 1c3f 10ef 36be
00000030: fa05 823d dccd 6abf 8a08 30be ca88 9bbe
00000040: ac6a 233e 31ec a7be ba4a 37bf 530d 2c3f
00000050: e1f8 6fbe b6d5 90bf f55d e3bd 2069 6cbe
00000060: 7868 b1be f802 a6be 7860 84be 4843 af3d
00000070: b9fa 86be 452f 103e db79 643f 0515 0abc
00000080: afb3 c5bc a0a3 323f a704 b3bc 4754 5d3c
00000090: 0703 b2be e67a 103e 2cc5 7d3e 709e 003f
000000a0: f976 d33c bd88 59be 4240 f8bd fe2b 8abd
000000b0: 03e2 8b3e 8517 a5be 2b81 31bd 7b4a 2e3f
000000c0: 6192 4fbe 4b5a 46be fcfc 483d 5a01 423f
000000d0: 127d d7bd c0bf 253d 9a43 7bbe a857 1ebe
000000e0: 5fe8 b53e 8ef1 b2be 351d e73d 03cd 653f
000000f0: 1402 debd d893 d8bd f61d a8bd c71b d43d

fc2.weight f4 [256, 64]
-0.03078608 -0.011646768 0.052275077 0.064340256 0.08825636 -0.06937502 0.04153298 0.016393617
-0.031130327 0.10297534 -0.13881579 -0.11347897 -0.1340994 0.05844957 0.116659574 0.012186567
0.06471858 0.06550967 -0.13114029 -0.04231312 -0.115169734 -0.0132974535 -0.045342535 -0.046871975
0.01771313 0.047603354 -0.075443596 0.00035935847 0.009386405 -0.06382158 0.04943883 -0.00948014
0.06898405 -0.01903334 -0.087327525 0.040853515 0.079362094 -0.1979177 -0.0032665036 0.010680705
0.1189599 0.09451333 -0.06384896 -0.0603659 0.07823522 -0.20376046 -0.09669927 -0.032997742
0.07173385 -0.0014676152 -0.12816653 -0.18652244 -0.10209334 -0.09641747 0.062442318 -0.16257401
-0.098669685 -0.07122056 -0.13155675 -0.047364872 0.005594765 0.036147848 -0.026821196 -0.12010702
-0.47181582 0.560611 -0.026716635 -1.4496995 0.07921177 0.017261114 0.022326471 0.042270735
-0.57753843 -0.20943162 0.35915983 -0.4532277 -0.9665565 -4.173074 -0.038823105 -0.037014432
-1.4566084 0.095427915 -1.827904 1.3378594 0.2084847 0.17862539 -0.040596403 0.11750774
-0.10188578 0.03607449 0.03843976 -0.3223193 0.055713683 0.41260305 1.0664039 0.3506282
0.17122176 -4.919005 0.12124384 -0.015695693 0.06359134 -0.035900593 -0.39135674 0.17537448
-0.17840376 0.009505883 0.11879353 -0.06197042 -0.7019804 0.47111773 -0.08016084 -2.8446097
-0.07941818 -1.0174967 0.3564079 0.6577582 -0.09928632 -0.023698837 0.04904701 -0.49407014
-0.17771636 -0.028896283 -0.5508928 0.90432435 0.053026274 -0.05496572 -0.074415766 -1.0868983
-0.51819426 -0.41248178 -0.009839639 -2.44054 0.002059415 0.100711316 -0.045945767 0.11857629
-1.1198539 -3.1479702 -0.5785945 -4.201082 -1.775586 0.41722915 0.023084404 -0.8164797
0.42596054 0.057195287 0.7156646 -0.15839547 0.12799565 -1.7660167 -0.09706105 0.050754115
0.030689329 0.11353767 -0.100042075 -1.6675417 -0.010401726 -0.04985091 -0.7208811 -0.09424935
-3.356691 -1.8418986 -0.15199232 0.02863039 -2.4046693 0.8200742 -2.1514478 0.88034713
-0.039258666 -0.13237792 0.09082095 0.065920115 0.783278 1.1469465 0.109422915 -0.58000684
0.0648247 -0.84945273 -1.5649253 0.3066538 0.031980112 0.063246295 -0.028153151 -0.76339215
-2.6907554 -0.05975039 0.931647 -0.025980731 0.00784183 -0.057460323 0.0010309964 1.4124336
-0.8471277 -0.475897 0.046503447 4.1128497 -0.11674163 0.011755973 0.0023381673 -0.056372017
1.7675649 -0.9772043 -0.46631733 -0.18711345 -0.18000609 -0.13743202 -0.0024798687 -1.6469084
-0.40659127 -0.010908499 -0.3072977 0.069851466 -0.10248567 0.12547083 0.06611557 0.087561294
0.12002301 -0.005514711 0.092432156 -1.0901664 -0.08677444 0.32644984 0.49701482 0.060402885
0.25765258 0.3740613 0.13632226 0.096125394 0.07230478 -0.37057063 2.667592 0.49445054
0.056253612 -0.1020575 -0.02569814 -0.13636346 -1.0760372 0.26473257 -0.10582566 1.4745777
0.0518305 -1.8468134 1.5764071 0.1435294 -0.019731015 -0.11600363 0.07808463 -1.347976
-1.3864834 -0.0881426 -1.9516013 -0.5179933 0.44025266 -0.1117582 0.005903721 0.78010046
00000000: 1733 fcbc 16d2 3ebc 641e 563d d3c4 833d
00000010: c0bf b43d 7e14 8ebd 7c1e 2a3d e84b 863c
00000020: 0705 ffbc bce4 d23d ba25 0ebe aa67 e8bd
00000030: 5a51 09be d168 6f3d 37eb ee3d 2baa 473c
00000040: 2d8b 843d ef29 863d a449 06be 8650 2dbd
00000050: 1cde ebbd 90dd 59bc 18b9 39bd d4fc 3fbd
00000060: 201b 913c bcfb 423d 2c82 9abd 4768 bc39
00000070: 70c9 193c e3b4 82bd 5f80 4a3d 9752 1bbc
00000080: 8247 8d3d cfeb 9bbc c6d8 b2bd 0456 273d
00000090: 9888 a23d f0aa 4abe d612 56bb 20fe 2e3c
000000a0: 40a1 f33d 3490 c13d 3ec3 82bd 3c42 77bd
000000b0: c939 a03d 95a6 50be 440a c6bd a428 07bd
000000c0: 32e9 923d ff5c c0ba 163e 03be bdff 3ebe
000000d0: 5016 d1bd 8676 c5bd 84c3 7f3d cd79 26be
000000e0: 5513 cabd 16dc 91bd d0b6 06be ab01 42bd
000000f0: 4a54 b73b c40f 143d 20b8 dbbc abfa f5bd
00000100: d891 f1be 3484 0f3f d8dc dabc c18f b9bf
00000110: c839 a23d 2e67 8d3c 01e6 b63c 1424 2d3d
00000120: 8fd9 13bf 3e75 56be cce3 b73e 760d e8be
00000130: 3f70 77bf d289 85c0 fa04 1fbd 729c 17bd
00000140: 2572 babf b66f c33d c2f8 e9bf fa3e ab3f
00000150: 037d 553e 93e9 363e 6a48 26bd e6a7 f03d
00000160: 7ea9 d0bd d8c2 133d 0373 1d3d 0907 a5be
00000170: 0834 643d b540 d33e ec7f 883f 8a85 b33e
00000180: c254 2f3e 7d68 9dc0 b14e f83d 4194 80bc
00000190: 2d3c 823d 800c 13bd e95f c8be 5e95 333e
000001a0: 7aaf 36be 90be 1b3c 064a f33d b2d4 7dbd
000001b0: fdb4 33bf 5836 f13e 5e2b a4bd 160e 36c0
000001c0: 00a6 a2bd 553d 82bf 197b b63e d762 283f
000001d0: a056 cbbd 1024 c2bc 84e5 483d c3f6 fcbe
000001e0: 47fb 35be e6b7 ecbc 4f07 0dbf cd81 673f
000001f0: 1432 593d bc23 61bd 4b67 98bd 7c1f 8bbf
00000200: 61a8 04bf d030 d3be 7036 21bc cf31 1cc0
00000210: 40f7 063b bc41 ce3d a131 3cbd 20d8 f23d
00000220: 5f57 8fbf 5878 49c0 c51e 14bf 446f 86c0
00000230: 6746 e3bf 0f9f d53e 811b bd3c d004 51bf
00000240: 8017 da3e 9b45 6a3d cc35 373f 6c32 22be
00000250: 4b11 033e d60c e2bf f2c7 c6bd 8ce3 4f3d
00000260: 3068 fb3c 7086 e83d dce2 ccbd 0272 d5bf
00000270: 006c 2abc 7830 4cbd aa8b 38bf ce05 c1bd
00000280: 06d4 56c0 55c3 ebbf e0a3 1bbe 488a ea3c
00000290: 1ae6 19c0 62f0 513f 52b1 09c0 6e5e 613f
000002a0: b2cd 20bd 148e 07be 5600 ba3d 2001 873d
000002b0: e884 483f 25cf 923f 1f19 e03d 547b 14bf
000002c0: d0c2 843d bc75 59bf 794f c8bf ba01 9d3e
000002d0: 94fd 023d 4687 813d 70a1 e6bc ab6d 43bf
000002e0: 5635 2cc0 d3bc 74bd 6b80 6e3f 8bd5 d4bc
000002f0: 057b 003c 845b 6bbd 8022 873a a0ca b43f
00000300: 5cdd 58bf c6a8 f3be 667a 3e3d 779c 8340
00000310: 3c16 efbd 209c 403c f03b 193b 58e6 66bd
00000320: 913f e23f 102a 7abf 25c1 eebe ab9a 3fbe
00000330: 8453 38be fbba 0cbe 4b85 22bb e5cd d2bf
00000340: bb2c d0be 90b9 32bc 2056 9dbe 490e 8f3d
00000350: 02e4 d1bd 6d7b 003e 9a67 873d 5653 b33d
00000360: a0ce f53d c0b4 b4bb 124d bd3d 938a 8bbf
00000370: ccb6 b1bd 6f24 a73e ba78 fe3e 0469 773d
00000380: 0aeb 833e f684 bf3e 1098 0b3e 64dd c43d
00000390: 8714 943d 6fbb bdbe d4b9 2a40 9f28 fd3e
000003a0: 306a 663d 8603 d1bd e884 d2bc dda2 0bbe
000003b0: 96bb 89bf 078b 873e 20bb d8bd f6be bc3f
000003c0: 384c 543d 6264 ecbf b5c7 c93f 5ff9 123e
000003d0: f0a2 a1bc 5093 edbd d6ea 9f3d 7a8a acbf
000003e0: 4a78 b1bf 1c84 b4bd 12ce f9bf 359b 04bf
000003f0: cc68 e13e 7ce1 e4bd 0074 c13b aab4 473f

fc2.bias f4 [256]
0.06997906 -0.49806195 1.2145226 -0.0076223374 -0.085709184 0.7985301 -0.52167314 -1.6147214
-0.08839144 -0.09873883 -0.10843317 -0.11085345 -0.016579308 -0.05954242 -0.06522589 -0.07172382
0.024497457 -0.19581883 -0.0218835 -0.13849853 -0.10064918 -0.084790915 -0.04975693 0.01568712
1.447377 -0.09337111 0.59352446 -0.12301166 -0.13761878 0.028246045 1.2802647 -0.05235012
-0.077846274 -0.08511899 -0.121855736 -0.13323238 0.57257235 1.0595163 -0.030963492 -0.023852343
-0.08837367 -0.14396171 -0.057077054 -2.3722155 -0.10179925 0.031067586 -0.1445817 -0.04219271
-0.118131444 -1.0580134 -0.1412917 0.96300167 -0.039012354 -0.17645672 1.2297293 -0.13967924
0.008799434 1.4831071 -0.07890192 -0.10900383 0.03695035 -0.12373041 -0.15265018 0.7606984
0.83690876 -0.11168583 -0.023144003 -0.14371683 0.023492398 -0.09558672 -0.015530084 0.59648705
0.32128683 0.18794982 -0.10141561 0.018185614 0.07848081 -0.1344487 -0.3866044 -0.05257428
-0.64916706 -0.062628075 -0.13787259 1.444156 -0.4962775 -0.08190126 -0.013467663 -0.5515271
-1.6663132 0.44115067 -0.35742763 -0.07875845 0.032662302 -0.15397836 -0.19393995 -0.07751003
0.025529541 -0.15366066 -0.11304515 -0.11067802 2.7181866 -0.93725586 -0.090095684 -0.07503505
1.6796689 -0.26406205 0.26759976 0.0168981 -0.11929116 -0.121116884 -0.15051726 0.008415796
0.17702447 -0.057859235 -0.12668574 -0.12531412 -0.1413946 -0.116534084 2.4346864 0.052614823
0.03452244 -0.2995412 0.63982254 -0.08049085 -0.089069836 -0.5341599 -1.2966012 -0.103045866
0.8895009 -0.14378442 0.13930576 0.7663044 -0.11331824 0.041939262 0.2557536 0.08712638
-0.09701757 -0.2009149 -0.053722836 -0.020185217 -0.011495738 -0.09608666 0.16827026 0.8129024
-0.13328162 -0.041380085 -0.10921112 1.0170127 1.0875992 0.02875338 0.53753704 0.06899947
-0.07819763 -0.0206608 0.015930979 -0.11570905 -0.14369611 -0.14432788 1.7778767 -0.010596154
0.22383472 0.012357381 -0.95096076 -0.051460356 -0.030612836 0.04293928 -0.24079813 -0.03580364
-0.073842086 -0.8909156 0.64461154 1.3981773 -0.055676658 -0.06303507 -0.10887145 -0.14897534
0.0034015838 -0.00097558583 0.8461776 -0.16462912 -0.04312595 -0.13770437 -0.049747035 -0.11972142
-0.01546783 -0.5554043 -0.04234609 -0.08951582 1.3687899 -0.13368967 -0.11718395 -0.06781805
-0.13748236 -0.08319783 0.18930587 -0.08840485 -0.009265435 -0.34654215 -0.10049671 -0.08403672
-0.09988463 0.34385726 -0.11980477 -0.06355526 0.13855632 1.2648567 -0.05206135 -0.04161077
-0.13375334 0.12773715 -0.13124472 -0.03221795 -0.21322845 -1.2164342 -0.11178744 -0.09703159
0.6139205 -0.06712864 -0.12528792 -0.043910757 -0.019688902 -0.07704601 0.96006274 0.007899994
0.04579617 0.56129146 -0.115247235 -0.11359589 0.320535 -0.09239761 -0.088441804 -0.077323996
1.6817857 -0.021715896 -1.8382626 -0.34964734 -0.09473017 -1.0095686 0.19475372 -0.19317082
0.8106973 -0.041729026 -0.08896687 0.32962906 0.7080866 0.9743981 -0.82093394 0.77676463
-0.14140864 -0.12629728 -0.08001128 -0.096702695 -0.10494124 0.9870639 -0.12706006 -0.11099726
00000000: 2e51 8f3d fa01 ffbe 7a75 9b3f cdc4 f9bb
00000010: 4c88 afbd 786c 4c3f 5f8c 05bf 31af cebf
00000020: 9206 b5bd 9537 cabd 3612 debd 2207 e3bd
00000030: 54d1 87bc c1e2 73bd 2795 85bd f0e3 92bd
00000040: e4ae c83c bb84 48be 0745 b3bc 8fd2 0dbe
00000050: 2821 cebd dca6 adbd eccd 4bbd 4682 803c
00000060: a643 b93f 5a39 bfbd 38f1 173f 8aed fbbd
00000070: f0eb 0cbe 4064 e73c b7df a33f 146d 56bd
00000080: de6d 9fbd dd52 aebd 808f f9bd 126e 08be
00000090: 1a94 123f 3b9e 873f 26a7 fdbc fd65 c3bc
000000a0: 41fd b4bd b36a 13be a1c9 69bd 61d2 17c0
000000b0: 207c d0bd 7381 fe3c 3a0d 14be 43d2 2cbd
000000c0: e6ee f1bd fc6c 87bf c5ae 10be 4787 763f
000000d0: 6bcb 1fbd 12b1 34be c567 9d3f 1308 0fbe
000000e0: 802b 103c 74d6 bd3f 5497 a1bd 663d dfbd
000000f0: 4059 173d 5f66 fdbd 5450 1cbe 21bd 423f
00000100: a73f 563f 8abb e4bd 7e98 bdbc 812a 13be
00000110: 2173 c03c f8c2 c3bd e571 7ebc 60b3 183f
00000120: b57f a43e eb75 403e fdb2 cfbd fff9 943c
00000130: 8cba a03d ecac 09be 03f1 c5be 2158 57bd
00000140: d02f 26bf 2643 80bd 792e 0dbe 1bda b83f
00000150: 1618 febe d9bb a7bd 79a7 5cbc e130 0dbf
00000160: c049 d5bf 80de e13e c100 b7be 1c4c a1bd
00000170: e8c8 053d 81ac 1dbe 3298 46be 94bd 9ebd
00000180: 5423 d13c 3859 1dbe 3784 e7bd 28ab e2bd
00000190: c5f6 2d40 00f0 6fbf 1684 b8bd faab 99bd
000001a0: 64ff d63f 2433 87be d602 893e e26d 8a3c
000001b0: ec4e f4bd 210c f8bd 3221 1abe 68e2 093c
000001c0: e745 353e cefd 6cbd e8b9 01be 5852 00be
000001d0: bfc9 10be 6ca9 eebd e7d1 1b40 a482 573d
000001e0: 6767 0d3d 775d 99be 69cb 233f 63d8 a4bd
000001f0: 3f6a b6bd b4be 08bf 07f7 a5bf b609 d3bd
00000200: 55b6 633f 393c 13be 2ba6 0e3e 862c 443f
00000210: 6513 e8bd 81c8 2b3d 23f2 823e 516f b23d
00000220: 26b1 c6bd a3bc 4dbe 7a0c 5cbd 785b a5bc
00000230: 9f58 3cbc 15c9 c4bd 0a4f 2c3e 5f1a 503f
00000240: fa7a 08be 2a7e 29bd 14aa dfbd 792d 823f
00000250: 7336 8b3f 358c eb3c 079c 093f 984f 8d3d
00000260: 1426 a0bd d740 a9bc af81 823c def8 ecbd
00000270: 1325 13be b0ca 13be 7791 e33f 7e9b 2dbc
00000280: ee34 653e 9d76 4a3c 2a72 73bf 18c8 52bd
00000290: c5c7 fabc 19e1 2f3d c993 76be d6a6 12bd
000002a0: 853a 97bd 0b13 64bf 4305 253f 79f7 b23f
000002b0: 350d 64bd 8818 81bd fff7 debd fe8c 18be
000002c0: 1bed 5e3b 75be 7fba 189f 583f 8994 28be
000002d0: d6a4 30bd 6002 0dbe 8cc3 4bbd 8130 f5bd
000002e0: c86c 7dbc fa2e 0ebf 1873 2dbd 1254 b7bd
000002f0: 8234 af3f f2e5 08be 24fe efbd 31e4 8abd
00000300: 2dc8 0cbe a063 aabd 66d9 413e 9a0d b5bd
00000310: 0dce 17bc f96d b1be 38d1 cdbd 721b acbd
00000320: 5090 ccbd 0f0e b03e 345c f5bd 4329 82bd
00000330: b5e1 0d3e d3e6 a13f 483e 55bd 0e70 2abd
00000340: a3f6 08be 87cd 023e 0465 06be f8f6 03bd
00000350: 8f58 5abe 1eb4 9bbf d0f0 e4bd 80b8 c6bd
00000360: e529 1d3f be7a 89bd 7a4b 00be c4db 33bd
00000370: 9f4a a1bc 4cca 9dbd acc6 753f fa6e 013c
00000380: c494 3b3d ccb0 0f3f be06 ecbd f6a4 e8bd
00000390: 2a1d a43e f53a bdbd fa20 b5bd 0b5c 9ebd
000003a0: c144 d73f 89e5 b1bc 304c ebbf fa04 b3be
000003b0: e401 c2bd 8b39 81bf 856d 473e 92ce 45be
000003c0: dc89 4f3f 0eec 2abd 4334 b6bd 24c5 a83e
000003d0: 2a45 353f 2772 793f ba28 52bf 0cda 463f
000003e0: 6dcd 10be 1354 01be f4dc a3bd 100c c6bd
000003f0: 6feb d6bd 38b0 7c3f 081c 02be 8852 e3bd

fc3.weight f4 [512, 256]
0.0034819578 -0.03146989 0.010656456 -0.02969838 -0.011619596 0.009106732 0.05488831 -0.06654721
0.036944367 0.035862282 -0.02593878 0.022547655 0.056143474 -0.033876926 -0.007037893 -0.008030671
0.0118851345 -0.061265357 0.026382357 -0.058881417 -0.038493585 -0.046126023 0.038491473 0.03980382
-0.04211189 0.051044576 0.016830118 0.0016487986 -0.038963243 -0.030088907 -0.041777533 -0.061234735
0.026945002 -0.050316095 -0.01692456 -0.020197242 0.03753899 0.019445496 -0.0050225407 -0.009242542
0.019324675 0.05208777 -0.052380852 -0.02400104 0.03797756 0.050890516 0.029148236 0.049257036
0.0388833 -0.031229071 -0.032713614 -0.06601798 -0.030195639 0.0132261915 -0.085073635 0.029598495
-0.010120236 0.019742772 -0.062244326 0.0027730614 0.03533342 0.020159995 -0.05691494 0.04857097
-0.07007957 -0.019956104 0.044659253 0.020411886 0.0028973543 -0.023739979 -0.00034161238 -0.026065812
-0.0070385677 -0.056893352 -0.029640699 0.03345243 -0.062376358 0.009241484 0.0032057085 0.05321872
-0.047895838 0.053956866 -0.05524793 -0.0033269431 -0.06644347 -0.019179173 0.04352863 -0.06790838
0.011233123 0.017276505 -0.061774917 -0.002907637 -0.02858281 -0.020882316 -0.004646142 0.054440826
-0.06227142 -0.0039634397 -0.026957983 2.2262335e-05 0.0153740095 -0.008333914 -0.040417083 0.013745546
-0.06725699 -0.04260086 -0.06786201 -0.058606952 -0.012162082 -0.040604293 0.0051906174 0.0063629076
-0.025785077 -0.037963003 -0.008043047 -0.042490855 0.032308355 0.05427645 -0.0368637 -0.025329668
0.0487197 -0.0275967 0.048566762 0.058439992 -0.06827485 -0.0037292093 -0.027903752 0.010040492
0.04069821 -0.06618127 0.002892292 0.016230911 0.045511536 0.041327026 0.026388442 -0.0076873787
0.029064154 -0.026247717 0.058219522 0.043385886 -0.015580043 0.0071605663 -0.013514469 0.025443284
-0.034385614 0.058338396 -0.009328173 0.004635821 -0.024984 -0.048012756 -0.055756968 -0.003152607
0.026704676 -0.008877383 0.04066808 0.020641223 -0.029799215 -0.029829033 -0.07453653 0.03424073
0.023654168 -0.0151974615 -0.07683817 0.008986205 0.03974261 -0.06724493 0.03214033 0.026560908
-0.026872262 -0.09870034 -0.07152787 0.03887427 0.025631273 0.035855405 -0.021760926 0.034501694
-0.03246507 -0.0055097328 -0.07676648 -0.02199382 -0.020504192 0.056551076 0.031111473 -0.0037657246
0.061954133 0.021362845 0.059152983 -0.008184624 -0.06105316 0.040567607 0.04015113 0.05484637
0.0065321475 0.03221977 -0.007050379 0.057759225 -0.06404854 0.029905092 0.048318177 0.04186692
-0.0330334 0.040050913 -0.056481652 0.059789844 -0.026152238 -0.0023818065 -0.034988135 0.0051243543
-0.012110658 -0.041878324 -0.03123203 -0.024391279 0.019674532 -0.05403049 -0.0082308715 -0.046762407
-0.014036994 0.01814884 0.061859265 0.056877054 -0.0044005886 0.010769855 -0.076950304 -0.049352355
-0.01632445 -0.02090509 -0.035267204 0.004319504 0.04427033 -0.057734374 0.058021992 0.03540332
-0.016735509 0.027535724 -0.00087703764 -0.05671555 -0.02069053 -0.08161078 -0.100193664 -0.0715699
-0.013094881 0.013805511 0.04899168 -0.0251849 -0.027987394 0.035031572 -0.046790354 -0.037694495
0.060204357 -0.052678406 -0.0012171939 0.0029768625 -0.034413032 -0.072761916 0.012741119 -0.025913365
00000000: 8f31 643b 92e6 00bd 6b98 2e3c 044a f3bc
00000010: 1e60 3ebc 6734 153c 91d2 603d e749 88bd
00000020: fa52 173d 54e4 123d 907d d4bc dcb5 b83c
00000030: b3f6 653d 88c2 0abd 209e e6bb 1393 03bc
00000040: deb9 423c 62f1 7abd d01f d83c a42d 71bd
00000050: 73ab 1dbd a4ee 3cbd 3ca9 1d3d 5509 233d
00000060: 847d 2cbd 1e14 513d 51df 893c 801c d83a
00000070: ec97 1fbd 037d f6bc eb1e 2bbd 46d1 7abd
00000080: c4bb dc3c 4018 4ebd 60a5 8abc b074 a5bc
00000090: 7cc2 193d 294c 9f3c 2094 a4bb 086e 17bc
000000a0: c84e 9e3c fc59 553d 4e8d 56bd d49d c4bc
000000b0: 5c8e 1b3d 9372 503d 48c8 ee3c bfc1 493d
000000c0: 1844 1f3d 1cd4 ffbc b6fe 05bd 6f34 87bd
000000d0: d85c f7bc abb2 583c 163b aebd 8b78 f23c
000000e0: 59cf 25bc 98bb a13c e8f3 7ebd 40bc 353b
000000f0: c7b9 103d 9326 a53c a41f 69bd 5af2 463d
00000100: e185 8fbd fc7a a3bc 9fec 363d d436 a73c
00000110: 8ae1 3d3b 587a c2bc 701a b3b9 f887 d5bc
00000120: c9a3 e6bb 0109 69bd 0dd1 f2bc 6a05 093d
00000130: 5a7e 7fbd 9869 173c dd16 523b dffb 593d
00000140: 6d2e 44bd e001 5d3d a74b 62bd d808 5abb
00000150: 8413 88bd a41d 9dbc 144b 323d 8c13 8bbd
00000160: 220b 383c 7587 8d3c b207 7dbd 0e8e 3ebb
00000170: 7f26 eabc 6411 abbc aa3e 98bb 58fd 5e3d
00000180: 5110 7fbd bedf 81bb fdd6 dcbc 00c0 ba37
00000190: 45e3 7b3c f88a 08bc 628c 25bd 0035 613c
000001a0: 08be 89bd 3d7e 2ebd 3dfb 8abd d80d 70bd
000001b0: 7843 47bc b050 26bd 0e16 aa3b f07f d03b
000001c0: 3a3b d3bc 187f 1bbd fcc6 03bc e40a 2ebd
000001d0: c455 043d fc50 5e3d 64fe 16bd 2a80 cfbc
000001e0: 4f8e 473d 7912 e2bc f1ed 463d c65e 6f3d
000001f0: afd3 8bbd c065 74bb 6996 e4bc e080 243c
00000200: 2bb3 263d 0c8a 87bd 9c8c 3d3b b0f6 843c
00000210: 4e6a 3a3d 8746 293d 932c d83c 68e6 fbbb
00000220: f317 ee3c 7405 d7bc 9877 6e3d 66b5 313d
00000230: 7043 7fbc 2fa3 ea3b cb6b 5dbc 6f6e d03c
00000240: eed7 0cbd 3ef4 6e3d 31d5 18bc 16e8 973b
00000250: 3fab ccbc 06a9 44bd 6b61 64bd f89b 4ebb
00000260: c4c3 da3c 7172 11bc 9393 263d c817 a93c
00000270: 7c1d f4bc 045c f4bc 9ca6 98bd 0240 0c3d
00000280: 63c6 c13c c6fe 78bc 555d 9dbd e03a 133c
00000290: 26c9 223d b6b7 89bd 94a5 033d 4396 d93c
000002a0: 3823 dcbc 6723 cabd 347d 92bd a03a 1f3d
000002b0: adf8 d13c 1edd 123d f843 b2bc a651 0d3d
000002c0: 18fa 04bd fd8a b4bb bf37 9dbd 622c b4bc
000002d0: 68f8 a7bc 1aa2 673d 7ddd fe3c 60ca 76bb
000002e0: 9ec3 7d3d 2201 af3c 664a 723d cd18 06bc
000002f0: e112 7abd 382a 263d 8375 243d 96a6 603d
00000300: a00b d63b e1f8 033d de06 e7bb f094 6c3d
00000310: e22b 83bd 86fb f43c 48e9 453d a67c 2b3d
00000320: 084e 07bd 6d0c 243d 4e59 67bd 32e6 743d
00000330: 383d d6bc 1518 1cbb b84f 0fbd 33ea a73b
00000340: c86b 46bc 9b88 2bbd 50da ffbc 38d0 c7bc
00000350: 7c2c a13c 134f 5dbd c7da 06bc f089 3fbd
00000360: 6cfb 65bc e0ac 943c 2460 7d3d eaf7 683d
00000370: d032 90bb 0c74 303c 1f98 9dbd b225 4abd
00000380: daba 85bc 2741 abbc 5874 10bd a08a 8d3b
00000390: ce54 353d e17a 6cbd 78a8 6d3d 1203 113d
000003a0: e818 89bc 9992 e13c 00e9 65ba 914e 68bd
000003b0: 307f a9bc 8d23 a7bd 5632 cdbd 3d93 92bd
000003c0: e98b 56bc 8330 623c 80ab 483d 9050 cebc
000003d0: d245 e5bc 447d 0f3d 3ea7 3fbd 8b65 1abd
000003e0: d898 763d 50c5 57bd 408a 9fba 7717 433b
000003f0: aef4 0cbd 3304 95bd 20c0 503c 4448 d4bc

fc3.bias f4 [512]
-0.030679153 -0.045165636 -0.058678698 -0.05025583 0.96690726 -0.108201176 1.0890863 0.9316769
0.027463762 1.7435076 -0.13092408 -0.2071629 -0.07665871 -0.09228876 -0.32479167 0.17273866
-0.11128104 0.7814323 0.54603124 -0.03214953 0.98866856 -0.11161895 -0.56772435 -0.021604164
-0.13323057 -0.04633113 -0.08079066 -0.17785311 -0.13473655 0.18768239 0.99220836 -0.018427934
-0.10989206 -0.031486988 -0.08488783 -0.110387914 0.034746803 0.99887145 -0.08883927 -0.11613145
-0.056988083 -0.03806503 -0.07132203 -0.14470264 -0.23318529 0.8898417 0.46322262 0.029672328
-0.04859466 -0.003929004 -0.113172345 -0.6934665 -0.1395513 1.1458638 2.3636465 -0.08065747
-0.11858843 -0.014605864 -0.0763735 -0.065853946 0.96979433 -0.6870454 -0.5720071 -0.08408997
-0.0046310946 0.46858197 -0.091796294 -0.04270589 0.11337753 -0.0060722767 -0.08032811 -0.024053419
-0.044410616 -1.0114208 -0.063720554 -0.07013729 -0.09717929 0.896589 -0.1739388 -0.1015812
-1.5220653 -0.62347955 -0.08750731 1.5766976 1.129536 -0.24279486 -0.17613156 -0.057117984
0.42751935 -0.0297366 -0.15488774 1.245703 -0.11759646 -0.049590547 -0.047607068 -0.079078324
-0.12882036 1.6208129 0.0076777264 -0.048961315 -1.1221972 0.005379784 -0.05640305 -0.12532556
-0.14028652 -0.04538461 -0.08962772 -0.0142901065 -0.056272376 -0.08137584 -0.02778435 -0.026541932
0.9784573 0.67158175 0.658108 -0.10312542 0.4727248 -0.15978876 -0.015786137 -0.21165606
0.44211277 2.0125105 -0.087941185 -0.050868217 0.038624264 1.4690294 0.5760777 -0.017313465
-0.052606806 0.30593967 0.9052523 -0.108834155 -0.0467983 -0.10056661 0.17597498 0.9992838
-0.1477745 -0.10645886 -0.016459785 -0.026162732 -0.12994483 0.28067213 1.7162577 -1.2181487
-0.026460594 -0.0677107 -0.047320437 -0.19406784 -0.118346326 1.2922347 0.07976425 -0.060114298
-0.050825555 -0.060556985 0.8850928 1.4518462 -0.06768414 -1.3924541 -0.16379267 -0.06503737
1.1537262 0.44683236 0.99459404 -0.079984434 -0.31847143 -0.27748704 -1.483333 -0.10560256
0.50572675 1.7794969 -0.041663464 0.5466819 0.712083 -0.76150244 -0.024474466 -0.07152508
-0.042144034 -0.48958433 0.086429715 -0.057076834 -0.043792993 0.6436639 -0.1223357 -0.1958278
-0.107785136 0.07873775 1.50607 -0.054021213 -0.36614636 -0.13638411 0.7501198 1.8187106
-0.017116956 0.005829328 -0.024969328 0.64867914 -0.05478675 2.689499 0.5626595 -0.19631536
-0.17073496 -0.06108001 -0.10689855 -0.110106364 -0.12949224 -0.11073781 0.15601419 -0.055219363
-0.06910104 -0.062796265 -0.07027428 -0.14862068 -0.087278865 -0.09696166 -0.09779091 -0.5607006
-0.0020063855 -1.1227543 -0.045658942 -0.04894203 0.3923034 -0.06428154 -0.10791955 1.0522035
-0.012260714 0.0002566495 0.006052694 0.0020906786 -0.033170603 0.6095234 -0.08991855 -0.10457202
-0.06322036 -0.12078947 1.5178285 -0.03231581 -0.22522621 -0.06128605 -0.05465113 -0.06550832
-0.06610359 -0.3095893 -0.06452872 -0.032019228 -0.007862769 -0.027782721 -0.01745946 1.3380263
-0.049525786 -0.009262357 -0.006936862 -0.08224038 -0.077342585 -0.16336237 -1.3838636 -0.41565448
00000000: d952 fbbc 9aff 38bd 1359 70bd 0fd9 4dbd
00000010: 3c87 773f 9498 ddbd 2e67 8b3f 6182 6e3f
00000020: affb e03c 422b df3f f610 06be 8322 54be
00000030: 3eff 9cbd e401 bdbd 184b a6be 67e2 303e
00000040: 50e7 e3bd f20b 483f b4c8 0b3f 3aaf 03bd
00000050: 6219 7d3f 7a98 e4bd 6256 11bf 37fb b0bc
00000060: 986d 08be b6c5 3dbd 9375 a5bd 201f 36be
00000070: 61f8 09be d02f 403e 5e01 7e3f 2ef6 96bc
00000080: 170f e1bd 80f8 00bd acd9 adbd 0f13 e2bd
00000090: aa52 0e3d 0ab6 7f3f 5df1 b5bd 53d6 edbd
000000a0: 566c 69bd 14ea 1bbd 4911 92bd ee2c 14be
000000b0: 20c8 6ebe aacc 633f 842b ed3e 6213 f33c
000000c0: 320b 47bd e0be 80bb e7c6 e7bd 0587 31bf
000000d0: 89e6 0ebe aaab 923f fc45 1740 be2f a5bd
000000e0: 7ede f2bd 6f4d 6fbc b669 9cbd 6fde 86bd
000000f0: 7144 783f 35e2 2fbf 0f6f 12bf 5d37 acbd
00000100: 70c0 97bb fae9 ef3e b2ff bbbd 5fec 2ebd
00000110: 7a32 e83d f3f9 c6bb 1083 a4bd ad0b c5bc
00000120: e8e7 35bd 3d76 81bf ec7f 82bd 24a4 8fbd
00000130: f005 c7bd db86 653f 031d 32be ce09 d0bd
00000140: 09d3 c2bf 5b9c 1fbf 0837 b3bd 3ad1 c93f
00000150: a394 903f 379f 78be d55b 34be 8cf4 69bd
00000160: d1e3 da3e 2c9a f3bc e49a 1ebe 3273 9f3f
00000170: 6ad6 f0bd 751f 4bbd a1ff 42bd d1f3 a1bd
00000180: 7ce9 03be cc76 cf3f 7095 fb3b a98b 48bd
00000190: 28a4 8fbf e648 b03b e206 67bd 5855 00be
000001a0: 45a7 0fbe 36e5 39bd bd8e b7bd 0d21 6abc
000001b0: dd7d 66bd 60a8 a6bd 019c e3bc 776e d9bc
000001c0: 2d7c 7a3f c8ec 2b3f c479 283f 6c33 d3bd
000001d0: fc08 f23e aa9f 23be ee51 81bc 5ebc 58be
000001e0: 9b5c e23e f9cc 0040 821a b4bd 315b 50bd
000001f0: 7a34 1e3d 2809 bc3f d479 133f f8d4 8dbc
00000200: 3c7a 57bd 20a4 9c3e 9dbe 673f 71e4 debd
00000210: 93af 3fbd def5 cdbd c932 343e 10d1 7f3f
00000220: 3352 17be 1a07 dabd acd6 86bc 3a53 d6bc
00000230: 4210 05be 42b4 8f3e 55ae db3f 4cec 9bbf
00000240: e3c3 d8bc e8ab 8abd 13d3 41bd b8b9 46be
00000250: 8f5f f2bd f267 a53f 705b a33d 693a 76bd
00000260: 752e 50bd 9a0a 78bd 7195 623f 19d6 b93f
00000270: fb9d 8abd f03b b2bf 44b9 27be 5032 85bd
00000280: 4dad 933f 36c7 e43e b79d 7e3f e1ce a3bd
00000290: b00e a3be c812 8ebe dbdd bdbf 2846 d8bd
000002a0: 4f77 013f 8ec6 e33f 4fa7 2abd 58f3 0b3f
000002b0: 124b 363f d3f1 42bf ad7e c8bc be7b 92bd
000002c0: 399f 2cbd ccaa fabe 1002 b13d 66c9 69bd
000002d0: 4860 33bd 28c7 243f 248b fabd 1587 48be
000002e0: 74be dcbd 4241 a13d e7c6 c03f 5945 5dbd
000002f0: 8977 bbbe 47a8 0bbe da07 403f 82cb e83f
00000300: dc38 8cbc f303 bf3b 7a8c ccbc d60f 263f
00000310: 1268 60bd c020 2c40 740a 103f e506 49be
00000320: 25d5 2ebe 082f 7abd a1ed dabd 727f e1bd
00000330: 9d99 04be 81ca e2bd 2fc2 1f3e b32d 62bd
00000340: d984 8dbd 549b 80bd f6eb 8fbd 0530 18be
00000350: 43bf b2bd d693 c6bd 9a46 c8bd 138a 0fbf
00000360: 907d 03bb 6ab6 8fbf df04 3bbd 7077 48bd
00000370: fedb c83e 0aa6 83bd ed04 ddbd 9bae 863f
00000380: 29e1 48bc ea8e 8639 ad55 c63b c403 093b
00000390: e6dd 07bd ba09 1c3f 3727 b8bd db29 d6bd
000003a0: ad79 81bd 7860 f7bd 3448 c23f 955d 04bd
000003b0: b3a1 66be 1507 7bbd ddd9 5fbd 3a29 86bd
000003c0: 5261 87bd 7d82 9ebe a227 84bd 9826 03bd
000003d0: d8d2 00bc 9798 e3bc 2407 8fbc 7244 ab3f
000003e0: 8ddb 4abd 24c1 17bc 9e4e e3bb a56d a8bd
000003f0: ca65 9ebd 7748 27be 7122 b1bf aad0 d4be

fc4.weight f4 [64, 512]
-0.019892372 0.020467937 0.021957673 0.008444717 -4.4485416 -0.0019853066 -6.719206 -0.00975391
-0.051945858 0.40490735 0.0046310537 -0.035319638 -0.029166767 -0.047166876 -0.031686462 0.288491
0.041013252 0.5512638 -1.0048202 -0.07304838 -7.8458395 -0.048695747 -0.3301282 0.4555551
0.022797128 -0.0078284675 -0.024173066 0.16360943 1.0956342 -3.826065 -0.7070602 0.010514194
-0.03635596 -0.0005499938 -0.020866582 -0.02896145 -3.5197136 0.016362797 -0.06948556 -0.0032823607
-0.017957503 0.014718639 -0.040940993 0.02510974 0.3733263 -2.394349 -2.6396408 0.4555331
0.03369695 0.037856344 0.0154130645 -0.28881225 -0.040342756 0.94040185 0.18911932 0.0010788995
0.04322931 0.020486614 -0.016109323 -0.081225656 -0.70806444 -0.120840214 -0.3350107 -1.1962968
-0.006522209 1.0966629 0.056372132 0.014064466 1.3297974 -0.02571009 0.04130377 -0.0028794215
-0.024481284 -2.2233076 0.014676938 0.040753365 0.013017476 -1.5617785 -1.9482224 -0.03969962
-1.9371903 0.7536715 0.04186927 -1.0862188 0.20363009 -0.2982813 0.062218323 0.011246048
-3.868034 0.037126962 -0.03561248 0.13234484 -0.027790025 0.026072647 0.0109759215 -0.031103104
0.101111904 -1.3073714 0.037809137 0.0015238407 -0.28040275 -0.023598762 -0.043115452 0.048304386
-0.016989531 0.016207961 -0.028431404 -0.056248873 -0.032552935 0.036214788 -0.028647132 -0.030767847
-0.37530744 -0.7615396 -0.8149099 0.03659186 -1.8744092 -0.03404026 0.03161368 -1.7114123
-4.0863433 -1.7166412 -0.012344686 0.017723974 0.49836868 -0.9880432 0.055976264 0.01749467
-0.022389164 0.49706903 1.229717 0.7683414 0.035677824 0.021006208 0.3900341 0.7765664
0.0074687223 -0.014041909 0.016984815 -0.03738628 -0.023721121 0.334274 -1.4142954 -2.600434
-0.033353865 -0.048446912 -1.2214234 -1.0242155 -0.009295265 -1.7617091 -3.3018148 -0.04363149
0.008597832 0.027691852 -0.20363945 -0.40938982 0.03354467 1.1531522 -0.019311434 -0.031855363
0.59034914 -2.4044402 0.41060823 0.034391355 0.96444446 -0.7882066 -1.0105313 -0.028069645
0.14024492 1.708012 0.01508864 -0.22395884 1.3047589 1.0119684 0.0041613206 -0.045218978
0.0025475856 1.3116117 0.20949008 -0.018622031 -0.0558847 1.4446458 -0.015545113 0.015348958
-0.06076712 0.7520784 0.5712562 0.045141213 -0.3274665 0.92677116 0.15613922 -0.41102162
0.013943724 0.027583666 -0.04057014 -0.048010666 -0.044372845 -0.4733946 0.060228292 0.15387675
0.06185213 0.013490977 -0.010811986 -0.03480974 -0.03089813 -0.01912366 -0.04212378 -0.0105813835
-0.01075878 -0.008983705 0.013476354 0.039573643 -0.050837684 -0.028612062 0.02930614 0.7324237
-0.0040927804 2.5717292 -0.043820042 0.30813926 0.40538657 0.04002467 -0.0014334591 3.4347405
-0.13170077 0.047880463 0.0017975717 -0.05317633 -0.051368054 0.44392028 0.0061963303 -0.008486427
-0.014252178 0.0013394116 -1.0180886 0.015337975 1.0993478 0.036866445 -0.14640152 -0.0009898668
-0.07254152 0.5322789 -0.016332973 -0.05292912 0.038555138 0.008394204 0.0012033333 -2.8651254
-0.035788193 0.003753068 0.028159965 0.048991155 0.022834504 0.024390807 1.4723581 0.6867021
00000000: 54f5 a2bc 60ac a73c 94e0 b33c b65b 0a3c
00000010: 745a 8ec0 eb1b 02bb bc03 d7c0 ddce 1fbc
00000020: 2ec5 54bd 0450 cf3e 18c0 973b 53ab 10bd
00000030: 25ef eebc 0e32 41bd aac9 01bd 18b5 933e
00000040: 83fd 273d a01f 0d3f f39d 80bf 649a 95bd
00000050: 1e11 fbc0 3175 47bd 9006 a9be 853e e93e
00000060: 0bc1 ba3c f942 00bc 9806 c6bc 3b89 273e
00000070: be3d 8c3f 40de 74c0 e601 35bf ba43 2c3c
00000080: fde9 14bd 762d 10ba 65f0 aabc 9040 edbc
00000090: fd42 61c0 460b 863c 724e 8ebd e01c 57bb
000000a0: 9d1b 93bc 7226 713c beb1 27bd f1b2 cd3c
000000b0: a024 bf3e 043d 19c0 e0ef 28c0 a23b e93e
000000c0: d005 0a3d 410f 1b3d 1487 7c3c 33df 93be
000000d0: 723e 25bd 2dbe 703f 7fa8 413e dc69 8d3a
000000e0: 3811 313d 8bd3 a73c b3f7 83bc a359 a6bd
000000f0: b643 35bf 137b f7bd 8686 abbe 4120 99bf
00000100: 41b8 d5bb 735f 8c3f 77e6 663d a56e 663c
00000110: cd36 aa3f f79d d2bc 242e 293d adb4 3cbb
00000120: f98c c8bc ac4a 0ec0 8a77 703c 00ed 263d
00000130: 4047 553c 5ce8 c7bf 5a5f f9bf 129c 22bd
00000140: daf5 f7bf 9ef0 403f 1d7f 2b3d 3809 8bbf
00000150: 6884 503e 54b8 98be a4d8 7e3d 5841 383c
00000160: de8d 77c0 7112 183d 64de 11bd 6885 073e
00000170: e8a7 e3bc 4e96 d53c 5ad4 333c f0cb febc
00000180: c213 cf3d f257 a7bf c1dd 1a3d 9cbb c73a
00000190: f390 8fbe 3152 c1bc d499 30bd d2da 453d
000001a0: a12d 8bbc 8fc6 843c fae8 e8bc 3865 66bd
000001b0: 3a56 05bd f555 143d 64ad eabc da0c fcbc
000001c0: 4c28 c0be 42f4 42bf ef9d 50bf 59e1 153d
000001d0: a4ec efbf cd6d 0bbd 597d 013d 8f0f dbbf
000001e0: 53c3 82c0 e6ba dbbf 5e41 4abc de31 913c
000001f0: 2e2a ff3e 66f0 7cbf 5e47 653d fb50 8f3c
00000200: 7b69 b7bc d57f fe3e 5e67 9d3f 06b2 443f
00000210: e922 123d 3615 ac3c 8db2 c73e 0ecd 463f
00000220: 2fbc f43b 0910 66bc bd23 8b3c 5b22 19bd
00000230: cc52 c2bc f625 ab3e a207 b5bf 836d 26c0
00000240: 109e 08bd 4570 46bd 9a57 9cbf 7e19 83bf
00000250: 2b4b 18bc af7f e1bf ef50 53c0 efb6 32bd
00000260: ecdd 0c3c 06da e23c dc86 50be 8b9b d1be
00000270: 2366 093d 7e9a 933f 0333 9ebc c57a 02bd
00000280: 1f21 173f 59e2 19c0 3e3b d23e f3dd 0c3d
00000290: d5e5 763f e8c7 49bf 1759 81bf 50f2 e5bc
000002a0: 5d9c 0f3e 23a0 da3f 5836 773c 7755 65be
000002b0: 5702 a73f 2e88 813f b05b 883b 8937 39bd
000002c0: 65f5 263b e4e2 a73f 9184 563e 3b8d 98bc
000002d0: 5be7 64bd 27ea b83f eeb0 7ebc 327a 7b3c
000002e0: f2e6 78bd 3688 403f d93d 123f fee5 383d
000002f0: b0a9 a7be e040 6d3f f6e2 1f3e 6d71 d2be
00000300: 3874 643c 24f7 e13c e02c 26bd d5a6 44bd
00000310: 4dc0 35bd c760 f2be f1b1 763d de91 1d3e
00000320: a958 7d3d 4209 5d3c c224 31bc a894 0ebd
00000330: 131e fdbc 39a9 9cbc fc89 2cbd 8a5d 2dbc
00000340: 9845 30bc 6430 13bc edcb 5c3c f917 223d
00000350: 2d3b 50bd d863 eabc 6e13 f03c 1f80 3b3f
00000360: bb1c 86bb 3697 2440 a57c 33bd 6ec4 9d3e
00000370: d48e cf3e e9f0 233d e8e2 bbba cad2 5b40
00000380: 91dc 06be 4e1e 443d 7f9c eb3a 6ccf 59bd
00000390: 4f67 52bd 8549 e33e 960a cb3b a80a 0bbc
000003a0: f881 69bc 328f af3a ba50 82bf 214c 7b3c
000003b0: 6eb7 8c3f 4501 173d 48ea 15be 6bbe 81ba
000003c0: a690 94bd 6e43 083f bacc 85bc 34cc 58bd
000003d0: feeb 1d3d d887 093c 2ab9 9d3a 375e 37c0
000003e0: a496 12bd 08f6 753b baaf e63c f3aa 483d
000003f0: 6d0f bb3c 3bcf c73c 3b76 bc3f b5cb 2f3f

fc4.bias f4 [64]
1.0135419 0.853834 1.1302013 0.37222144 -0.04734649 1.6840732 -0.0855125 0.5644981
-0.13097 4.418857 -0.13299999 -0.1394119 -0.012476567 -0.06823439 -0.07182072 -0.058546398
0.6274112 -0.024987504 -0.06628648 -0.10714691 -0.06636807 -0.09183767 1.8051322 2.4136992
-0.05567186 -0.09738137 -0.10106632 -0.08196567 -0.04218666 0.29076052 -0.13670509 0.4968209
-0.13368659 -0.01675182 -0.09563433 1.740119 -0.028671604 -0.066382185 -0.04498785 0.5917106
-0.08321203 -0.04693437 -0.07250845 -0.036508154 1.8666495 2.2173824 -0.1311854 -0.10426499
3.7965214 -0.061274145 1.0593313 -0.06367854 0.100666374 -0.08391593 -0.07787999 0.74519914
1.1371132 0.061787818 -0.06148331 -0.06277796 -0.026354378 0.5031713 -0.08974495 -0.11848341
00000000: bebb 813f dd94 5a3f 70aa 903f cf93 be3e
00000010: 65ee 41bd b68f d73f 2d21 afbd f382 103f
00000020: 001d 06be 4767 8d40 2631 08be fec1 0ebe
00000030: 846a 4cbc 79be 8bbd be16 93bd 59ce 6fbd
00000040: 059e 203f 98b2 ccbc 35c1 87bd d76f dbbd
00000050: fceb 87bd 6315 bcbd 920e e73f 0c7a 1a40
00000060: 2d08 64bd e26f c7bd dcfb cebd 9edd a7bd
00000070: ebcb 2cbd 90de 943e 6bfc 0bbe 4f5f fe3e
00000080: 23e5 08be 1d3b 89bc eedb c3bd 38bc de3f
00000090: b6e0 eabc 62f3 87bd 2e45 38bd 597a 173f
000000a0: 126b aabd 413e 40bd 4f7f 94bd 9389 15bd
000000b0: 5fee ee3f 98e9 0d40 7755 06be e288 d5bd
000000c0: 35fa 7240 99fa 7abd 2b98 873f e569 82bd
000000d0: 2c2a ce3d 1ddc abbd 8b7f 9fbd 5fc5 3e3f
000000e0: ed8c 913f 3915 7d3d ecd5 7bbd bb91 80bd
000000f0: 23e5 d7bc d6cf 003f 33cc b7bd 6ea7 f2bd

fc5.weight f4 [25, 64]
-1.6949551 -1.9054354 -2.3254273 -2.9839904 0.06624864 1.3800768 -0.058336116 -2.743585
0.17859584 1.7222563 -0.024134643 0.026086068 -0.024417935 0.0061917594 0.043772466 -0.061124213
-3.0823457 0.058130965 -0.014642538 0.07138198 -0.04292373 0.053612616 1.2518497 2.1795764
-0.043840904 0.034482908 -0.039459333 0.08302935 0.06879476 -1.8284934 0.052658964 0.79032683
-0.020505 0.00930967 0.3156939 1.8562168 0.1080323 -0.054244146 -0.04109181 -1.1964508
0.026623238 0.057926964 0.040936388 -0.008565087 2.848951 2.3726087 -0.040556226 0.07585927
1.2813321 0.0967553 -0.7010855 0.08033563 0.5933765 0.036579277 0.27721882 -2.5230436
2.8013787 0.026162604 0.0069793276 -0.034520496 -0.011173868 -0.94113237 -0.018079037 -0.041726053
-1.9773871 -2.1210105 -2.6632793 -2.2330854 -0.010478649 1.3799288 -0.07697226 -2.3263078
0.0066895448 1.7269253 -0.15932222 -0.2514554 0.025513818 -0.044459704 0.12853737 0.008779215
-3.4168015 0.052101333 0.041140024 0.020850185 0.05112141 0.06334704 1.2638462 2.1838996
-0.04373426 0.044082556 -0.03478111 0.04605388 0.10867888 -2.477121 -0.08046624 0.7636621
-0.042405345 0.02534009 -0.25816214 1.8031741 0.09655348 0.053389207 0.104449384 0.5224579
0.001465361 0.005723584 0.08261405 0.101062514 2.8612337 2.4529688 0.20076051 -0.15548345
1.2752388 0.0646436 -0.6889739 -0.030477237 0.17319241 -0.041308004 -0.23474345 -2.4083664
2.8016083 -0.22993736 0.10777751 0.024083769 -0.15243973 -0.037053615 0.05504315 -0.059544533
-2.107788 -2.0305126 -2.3929126 -2.406212 -0.094186835 1.3538127 -0.06508616 -2.6121383
0.12653388 1.7043463 0.08056999 -0.09614831 -0.04283965 0.12507963 0.0036252919 0.039777998
-2.763814 -0.019070629 -0.07848127 -0.12713158 -0.0062383614 0.002464214 1.2647146 2.1634593
0.119392335 -0.013841837 0.0834396 0.046664618 0.10012191 -3.1689553 -0.02715481 0.5087343
-0.16224542 0.044856027 0.23898475 1.66704 0.0042178677 0.11331116 -0.11733557 -0.2060404
-0.034413215 -0.06841429 0.14706257 0.1271173 2.6643562 2.4519145 0.075358436 -0.031673655
1.3537315 -0.06820129 -0.72496426 -0.12233776 0.24432646 -0.007592006 -0.014134778 -2.1727085
2.8018682 -0.1537552 0.09523006 0.1063831 0.03125592 0.21185757 -0.10022573 0.09278761
-2.088563 -2.1314907 -2.4310226 -1.9498721 -0.00706282 1.3691684 -0.01341371 -2.2913706
0.06449029 1.7097343 -0.0054372223 -0.13472225 -0.016316481 -0.082281165 -0.058221236 0.18963468
-3.4348307 0.11449999 0.053632803 -0.022175232 -0.09967233 0.061488472 1.2902693 2.1334984
-0.06364772 0.08614842 0.0734453 -0.0037031956 -0.014818496 -2.7516174 -0.04050104 0.25789875
-0.115157254 0.1397407 0.08323308 1.7010125 0.15034638 -0.047150135 0.025690911 -0.74750346
0.101373635 -0.10719597 0.11304085 0.14979278 2.887715 2.3985074 0.0903377 0.112909734
1.3410895 -0.0048457948 -0.73273075 0.069635056 0.51080763 -0.01910092 0.029844683 -2.0794916
2.8075209 -0.1024855 0.15140358 -0.0688363 -0.023571715 0.39940855 -0.09879005 0.102565266
00000000: 4af4 d8bf 4fe5 f3bf cdd3 14c0 b3f9 3ec0
00000010: 5ead 873d 5ba6 b03f daf1 6ebd e696 2fc0
00000020: d4e1 363e e572 dc3f 04b6 c5bc 73b2 d53c
00000030: 1f08 c8bc 3ee4 ca3b c24a 333d 625d 7abd
00000040: 2745 45c0 bc1a 6e3d 41e7 6fbc b730 923d
00000050: cbd0 2fbd e798 5b3d 9c3c a03f 2e7e 0b40
00000060: 8592 33bd f33d 0d3d 1ca0 21bd 4b0b aa3d
00000070: 44e4 8c3d 120c eabf edb0 573d dc52 4a3f
00000080: 1afa a7bc 9687 183c a2a2 a13e 8398 ed3f
00000090: 0a40 dd3d 1c2f 5ebd e34f 28bd 4d25 99bf
000000a0: fa18 da3c d344 6d3d eaac 273d 9454 0cbc
000000b0: 3755 3640 d2d8 1740 491e 26bd 1b5c 9b3d
000000c0: b102 a43f a527 c63d 577a 33bf 0287 a43d
000000d0: 86e7 173f 27d4 153d a0ef 8d3e 8c79 21c0
000000e0: ca49 3340 f552 d63c d8b2 e43b 5d65 0dbd
000000f0: 9912 37bc 0dee 70bf 7d1a 94bc f0e8 2abd
00000100: 051b fdbf a3be 07c0 2b73 2ac0 dfea 0ec0
00000110: a4ae 2bbc 82a1 b03f a2a3 9dbd 3ae2 14c0
00000120: f833 db3b e30b dd3f 5d25 23be c3be 80be
00000130: 5b02 d13c 611b 36bd 4d9f 033e b2d6 0f3c
00000140: e0ac 5ac0 3568 553d 7182 283d 02ce aa3c
00000150: af64 513d 18bc 813d b6c5 a13f 03c5 0b40
00000160: b222 33bd e98f 343d a376 0ebd fea2 3c3d
00000170: 0893 de3d 2789 1ec0 7ccb a4bd 5c7f 433f
00000180: 3ab1 2dbd 0596 cf3c d42d 84be 69ce e63f
00000190: d5bd c53d a4ae 5a3d 8fe9 d53d cdbf 053f
000001a0: 5b11 c03a e78c bb3b 8e31 a93d ddf9 ce3d
000001b0: 741e 3740 71fd 1c40 2a94 4d3e 0e37 1fbe
000001c0: 063b a33f dd63 843d 9860 30bf 66ab f9bc
000001d0: 5a59 313e 9532 29bd 9660 70be ad22 1ac0
000001e0: 8d4d 3340 b374 6bbe 75ba dc3d 534b c53c
000001f0: 2919 1cbe 88c5 17bd ed74 613d f8e4 73bd
00000200: 00e6 06c0 ebf3 01c0 7b25 19c0 61ff 19c0
00000210: 07e5 c0bd bc49 ad3f e54b 85bd 462d 27c0
00000220: 1992 013e 0528 da3f e101 a53d 68e9 c4bd
00000230: a178 2fbd e014 003e 4e96 6d3b 41ee 223d
00000240: 54e2 30c0 023a 9cbc caba a0bd c82e 02be
00000250: 2b6b ccbb a77e 213b 2be2 a13f 1e76 0a40
00000260: f883 f43d dfc8 62bc 62e2 aa3d 6623 3f3d
00000270: b70c cd3d 2ad0 4ac0 c473 debc 693c 023f
00000280: aa23 26be f4ba 373d 6bb8 743e 9161 d53f
00000290: 0a36 8a3b ae0f e83d a24d f0bd 41fc 52be
000002a0: dff4 0cbd cb1c 8cbd 9297 163e 0a2b 023e
000002b0: d084 2a40 2bec 1c40 8655 9a3d 3cbc 01bd
000002c0: 1347 ad3f 1ead 8bbd 4297 39bf 388c fabd
000002d0: b730 7a3e 5dc6 f8bb 8e95 67bc a80d 0bc0
000002e0: cf51 3340 0172 1dbe fa07 c33d 62df d93d
000002f0: 3506 003d 31f1 583e 2643 cdbd 6e07 be3d
00000300: 04ab 05c0 586a 08c0 e095 1bc0 6995 f9bf
00000310: 3a6f e7bb e940 af3f 2dc5 5bbc d1a5 12c0
00000320: 7c13 843d 93d8 da3f ba2a b2bb a1f4 09be
00000330: 24aa 85bc 0783 a8bd 6479 6ebd 982f 423e
00000340: 44d4 5bc0 f97e ea3d 12ae 5b3d d5a8 b5bc
00000350: 0221 ccbd 56db 7b3d 8b27 a53f 3d8b 0840
00000360: bc59 82bd 956e b03d 7d6a 963d 50b1 72bb
00000370: 47c9 72bc 801a 30c0 6be4 25bd 4e0b 843e
00000380: 91d7 ebbd 3018 0f3e 1b76 aa3d c7ba d93f
00000390: 67f4 193e 8020 41bd bf75 d23c 635c 3fbf
000003a0: fb9c cf3d 9089 dbbd f681 e73d 4763 193e
000003b0: 53d0 3840 2581 1940 f902 b93d 383d e73d
000003c0: d2a8 ab3f 79c9 9ebb 3e94 3bbf d39c 8e3d
000003d0: 4ac4 023f 8879 9cbc d67c f43c 6416 05c0
000003e0: 6cae 3340 ebe3 d1bd 8a09 1b3e 0cfa 8cbd
000003f0: 7819 c1bc 477f cc3e 7052 cabd bd0d d23d

fc5.bias f4 [25]
3.1743658 0.6755879 2.4374378 1.3383396 2.9765475 1.0339451 0.8748172 2.7163813
1.3188893 3.1379533 3.4031332 0.07678822 1.2061182 3.4334617 3.1197102 0.6675462
3.2649844 2.8682518 2.1968904 2.545878 2.4725838 3.69891 2.1358397 2.0386772
3.3079991
00000000: cf28 4b40 54f3 2c3f fbfe 1b40 b64e ab3f
00000010: c17f 3e40 5058 843f 05f4 5f3f 31d9 2d40
00000020: 5dd1 a83f 3ad4 4840 efcc 5940 2443 9d3d
00000030: 1562 9a3f d6bd 5b40 55a9 4740 4fe4 2a3f
00000040: 81f5 5040 7091 3740 da99 0c40 aaef 2240
00000050: d03e 1e40 f1ba 6c40 99b1 0840 b079 0240
00000060: 42b6 5340
