DQN_Model.model (torch, 166359 bytes, 6 tensors)

fc.0.weight f4 [128, 12]
-0.6670078 1.7861906 0.16250016 -0.107298456 0.41064903 -0.014146223 -0.029401343 -0.028137755
-0.7264836 0.77651596 0.07770497 -0.07140934 -0.16893043 0.48008862 0.29788995 -0.15520068
-0.12074758 0.40629327 -0.18069999 0.032278854 -0.15407355 0.56740236 0.024429338 0.09785725
-0.12580399 -0.92649204 0.3691126 -0.12984963 -0.7425815 -0.40087095 0.009784376 0.023950417
1.0152522 -0.7949676 -0.36430442 -0.0012088183 -0.10642485 1.1747762 -0.04262216 -0.13742816
0.34443757 0.25837255 -0.010815019 -0.0013819968 0.1590375 -2.394191 -0.014786434 -0.10963765
-0.14247866 -0.79022825 0.1112025 0.018564137 -0.9603594 0.1622115 0.017000256 0.0068711853
0.21327911 0.36653882 -0.31838736 -0.10914715 -0.29686788 1.3141057 0.07608217 -0.32771522
-0.84832346 -0.38726526 0.053077344 0.0038807672 0.53116 0.71437544 -0.08151895 -0.046882458
-0.07756967 0.19382879 0.05684 0.05663108 0.384224 -0.031891674 -0.023347884 0.05547923
0.00934326 -1.5576519 -0.28672212 -0.050780162 0.069592476 -0.16083461 -0.06911392 0.24873166
0.29838336 0.35751727 -0.4465988 -0.053528965 0.112820566 -0.12438694 0.011259357 -0.020993063
0.23126127 0.59159213 -0.06469837 0.23507246 -0.07598682 -0.12912713 -0.0042975256 0.013625361
0.9263566 -1.5321447 0.2043114 -0.3777853 -0.27463898 -0.1665647 0.17120378 -0.50510573
-0.20571002 -0.76253414 -0.37503302 0.03001477 -0.2660368 -0.4229483 -0.12900746 0.04857107
-0.4855729 -0.20581537 0.2345597 -0.15036444 -0.6594723 -0.6966595 0.10858312 0.05142179
-1.1131837 0.27669513 -0.44082588 0.0637642 -0.17068927 -0.16286841 0.10438097 0.060529564
-0.36297506 0.27845222 -0.018445408 -0.23614432 -0.17398927 -0.21797822 -0.015364727 -0.0840635
0.49632168 -1.2314305 0.03433678 -0.053326838 -0.16113986 -0.35370576 -0.009612097 -0.059651162
1.0745634 -0.51223177 0.045892823 0.37507164 -0.21069399 -1.1300222 0.0498631 -0.010193496
0.12675294 0.18670012 0.0038459213 0.0139554525 0.81001985 -0.11161916 -0.3757818 -0.10724356
0.050699025 0.20381808 0.34739134 0.045210548 -0.47046933 -0.9578355 -0.0022974522 0.01170505
-0.419316 0.21674761 -0.10749359 0.39184433 -0.42466575 0.42310736 -0.50962186 0.37337175
-0.8242956 -0.656233 -0.17730294 -0.015266042 -0.4233387 0.66824746 -0.08240192 0.40931037
0.055835653 0.50380075 -0.08270397 -0.063381374 -0.34635797 -0.29214492 -0.22113281 0.18509953
-0.38951254 1.2053365 0.096863 -0.025071086 0.8973848 0.7884861 0.25359973 0.212188
-0.1397419 -0.022094602 0.030672625 0.04203539 1.4764065 -1.232055 0.0036195067 0.1495854
-0.31739435 0.02991108 0.46451837 0.23187196 -0.35526893 -0.3156703 0.05634397 0.016512794
-0.3692939 0.25965995 -0.34075513 -0.012136073 -0.17626403 0.60434526 0.14463003 0.22515412
0.014929988 0.7253407 0.18964648 -0.08413324 0.023679655 1.1788968 -0.004113722 -0.0076517174
-0.30406097 -0.424053 0.2581383 0.4538298 -0.5933373 -0.50358796 -0.21776313 0.16143939
-0.4865698 0.22122903 -0.23434058 -0.11969491 -0.57889193 0.20793952 0.09225957 0.3763361
00000000: 06c1 2abf e5a1 e43f 7166 263e 4bbf dbbd
00000010: 9740 d23e 8fc5 67bc 16db f0bc 2681 e6bc
00000020: d4fa 39bf c0c9 463f c923 9f3d 0f3f 92bd
00000030: 19fc 2cbe 2dce f53e 0885 983e edec 1ebe
00000040: 824a f7bd ac05 d03e 6b09 39be d536 043d
00000050: 75c5 1dbe 4841 113f 0920 c83c 6269 c83d
00000060: c3d2 00be 952e 6dbf 54fc bc3e 4df7 04be
00000070: d219 3ebf f53e cdbe a64e 203c aa33 c43c
00000080: c9f3 813f ff82 4bbf 1c86 babe 3671 9eba
00000090: 46f5 d9bd 115f 963f 9394 2ebd f8b9 0cbe
000000a0: 1f5a b03e 6849 843e 7a31 31bc 1e24 b5ba
000000b0: bada 223e 6d3a 19c0 cd42 72bc b489 e0bd
000000c0: ede5 11be 664c 4abf 23be e33d d113 983c
000000d0: 1dda 75bf c51a 263e 1f44 8b3c ae27 e13b
000000e0: d765 5a3e faaa bb3e ab03 a3be 8a88 dfbd
000000f0: 11ff 97be 9e34 a83f f8d0 9b3d 4aca a7be
00000100: ba2b 59bf a247 c6be a167 593d 7854 7e3b
00000110: 1afa 073f 4fe1 363f 68f3 a6bd d207 40bd
00000120: d9dc 9ebd 0e7b 463e 0fd1 683d fef5 673d
00000130: 02b9 c43e d8a0 02bd 1044 bfbc 303e 633d
00000140: 7914 193c 2361 c7bf 3ecd 92be dcfe 4fbd
00000150: 8086 8e3d d4b1 24be 998b 8dbd 83b3 7e3e
00000160: b4c5 983e 810c b73e 99a8 e4be 3041 5bbd
00000170: 780e e73d 94be febd 2b79 383c a5f9 abbc
00000180: c1cf 6c3e 9572 173f 9480 84bd d6b6 703e
00000190: fa9e 9bbd e739 04be 42d2 8cbb e83c 5f3c
000001a0: b525 6d3f 511d c4bf 0237 513e 136d c1be
000001b0: 7b9d 8cbe f08f 2abe 0b50 2f3e 9c4e 01bf
000001c0: a6a5 52be 7035 43bf 5404 c0be 89e1 f53c
000001d0: fa35 88be ae8c d8be 881a 04be 75f2 463d
000001e0: 039d f8be 44c1 52be 6b30 703e 23f9 19be
000001f0: 2dd3 28bf 4758 32bf d460 de3d a89f 523d
00000200: ce7c 8ebf fcaa 8d3e eeb3 e1be ce96 823d
00000210: 2bc9 2ebe fac6 26be b1c5 d53d d9ed 773d
00000220: ded7 b9be 4a91 8e3e d31a 97bc d1cf 71be
00000230: 3e2a 32be af35 5fbe 56bc 7bbc 7c29 acbd
00000240: e01d fe3e 849f 9dbf b9a4 0c3d 3e6d 5abd
00000250: d901 25be ec18 b5be 0f7c 1dbc c754 74bd
00000260: 4b8b 893f 9f21 03bf 1dfa 3b3d 6409 c03e
00000270: 2ac0 57be 91a4 90bf 403d 4c3d 9f02 27bc
00000280: 86cb 013e 512e 3f3e da0b 7c3b 69a5 643c
00000290: 765d 4f3f 9698 e4bd 7966 c0be 83a2 dbbd
000002a0: c8a9 4f3d b0b5 503e 47dd b13e b22e 393d
000002b0: 5be1 f0be b534 75bf da90 16bb 8ac6 3f3c
000002c0: 96b0 d6be 16f3 5d3e 9925 dcbd d29f c83e
000002d0: ca6d d9be 87a1 d83e 9476 02bf 952a bf3e
000002e0: 0905 53bf e3fe 27bf e78e 35be 6c1e 7abc
000002f0: dabf d8be 4412 2b3f 56c2 a8bd 2191 d13e
00000300: edb3 643d 16f9 003f b360 a9bd 18ce 81bd
00000310: d555 b1be 0594 95be a470 62be bb8a 3d3e
00000320: 306e c7be 7748 9a3f 1c60 c63d e161 cdbc
00000330: 03bb 653f 3ada 493f d3d7 813e d047 593e
00000340: 8018 0fbe bdff b4bc 2845 fb3c 4d2d 2c3d
00000350: e3fa bc3f fab3 9dbf 3f35 6d3b ea2c 193e
00000360: 8381 a2be 1508 f53c 5ad5 ed3e d86f 6d3e
00000370: cfe5 b5be 8a9f a1be efc8 663d d745 873c
00000380: 1714 bdbe 26f2 843e 7577 aebe 61d6 46bc
00000390: 8f7e 34be 5fb6 1a3f e519 143e cd8e 663e
000003a0: e99c 743c eeaf 393f b032 423e 0c4e acbd
000003b0: d6fb c13c 17e6 963f 67cc 86bb 42bb fabb
000003c0: e1ad 9bbe 7a1d d9be b42a 843e 615c e83e
000003d0: f4e4 17bf 24eb 00bf 4cfd 5ebe 5e50 253e
000003e0: ad1f f9be dd89 623e faf6 6fbe 9b22 f5bd
000003f0: 4332 14bf 19ee 543e 96f2 bc3d 20af c03e

fc.0.bias f4 [128]
0.5623273 1.2670197 -0.9677453 0.55053586 0.9563161 0.47216663 0.71224755 1.095269
-0.2801171 -1.0604783 -0.9108289 0.64346945 -1.0536275 0.9634575 -1.6293672 -1.1538688
0.72197574 -0.3230591 -0.84910107 1.6119614 -1.1403786 -0.40790364 -0.5126553 -0.6228425
0.44003817 0.7698423 -0.5635147 1.0116984 0.65989685 0.48948187 0.52905416 0.799135
-1.27884 -0.64576715 -0.54695517 -0.94675493 -1.0157875 -0.7871738 1.3346959 0.32170954
0.39241314 -1.0737482 0.8979021 0.66230905 0.46179944 -0.6622561 0.9769333 0.8935015
0.513334 -0.83309543 -1.0135057 -0.6032041 0.9995327 0.12168977 -1.0718938 -0.14646302
-0.53529847 0.9275504 -0.5512087 -0.65594673 -0.04296075 -0.67280453 -0.75330585 -0.9738067
-0.57739836 -0.7273687 -1.1399508 -0.49595562 -0.568035 -1.1928413 1.0486317 1.3186921
1.1296641 0.21742071 0.33554178 -0.18954752 0.6070102 -0.48717356 0.9819287 1.0426444
0.44690198 -1.3767389 -1.1562963 1.0825639 0.08967542 0.6923477 0.5871219 0.59992516
-0.33717403 0.64523655 -0.84309083 1.3537972 -0.47039235 1.0418373 -0.5705852 0.9108003
1.0359966 0.213716 0.8891724 0.4201472 0.027354008 -0.14981589 -0.4854551 0.7574261
1.3975562 -0.02980695 -0.14533356 -0.7017029 -0.4586297 -0.22253408 1.2417891 -0.27320352
0.5046518 1.130633 -0.32935283 -1.0245779 -0.60849327 1.0821571 -0.6123737 0.14029403
1.4138695 1.6814052 -0.8261302 -1.5008721 0.05354186 0.8839192 0.75580704 0.8864709
00000000: aff4 0f3f b42d a23f 28be 77bf ebef 0c3f
00000010: 22d1 743f d3bf f13e db55 363f c631 8c3f
00000020: 826b 8fbe c1bd 87bf 152c 69bf 6aba 243f
00000030: 44dd 86bf 27a5 763f 1b8f d0bf f9b1 93bf
00000040: 67d3 383f 0168 a5be b05e 59bf c054 ce3f
00000050: edf7 91bf bfd8 d0be 613d 03bf 9b72 1fbf
00000060: af4c e13e 6314 453f 8042 10bf 557f 813f
00000070: 00ef 283f 5e9d fa3e 1870 073f 1d94 4c3f
00000080: 07b1 a3bf ff50 25bf 4105 0cbf 885e 72bf
00000090: 5305 82bf 3984 49bf 51d7 aa3f 1db7 a43e
000000a0: 60ea c83e 9570 89bf e9dc 653f 168d 293f
000000b0: fa70 ec3e 9e89 29bf 4d18 7a3f 84bc 643f
000000c0: db69 033f be45 55bf 8eba 81bf 956b 1abf
000000d0: 60e1 7f3f 7c38 f93d d133 89bf 67fa 15be
000000e0: 5209 09bf f173 6d3f 031c 0dbf 20ec 27bf
000000f0: 9df7 2fbd eb3c 2cbf a7d8 40bf 654b 79bf
00000100: 61d0 13bf d634 3abf e8e9 91bf e5ed fdbe
00000110: be6a 11bf 06af 98bf 9039 863f e7ca a83f
00000120: d598 903f 89a3 5e3e 22cc ab3e bf18 42be
00000130: 0565 1b3f d06e f9be ae5f 7b3f 5f75 853f
00000140: 56d0 e43e fb38 b0bf 8401 94bf 7491 8a3f
00000150: bfa7 b73d b33d 313f 9f4d 163f b294 193f
00000160: 13a2 acbe 392e 253f cdd4 57bf 3a49 ad3f
00000170: 44d7 f0be ed5a 853f df11 12bf 352a 693f
00000180: 899b 843f 5ed8 5a3e cda0 633f 891d d73e
00000190: 8315 e03c 5669 19be 928d f8be ade6 413f
000001a0: 1fe3 b23f b42d f4bc 52d2 14be cda2 33bf
000001b0: 83d1 eabe f9df 63be f2f2 9e3f 55e1 8bbe
000001c0: dc30 013f 95b8 903f efa0 a8be 5e25 83bf
000001d0: 37c6 1bbf 2084 8a3f 86c4 1cbf 3da9 0f3e
000001e0: adf9 b43f 4938 d73f 457d 53bf 941c c0bf
000001f0: b64e 5b3d 8748 623f 927c 413f c2ef 623f

fc.2.weight f4 [256, 128]
-0.082155235 0.18676476 -0.20920011 0.092982605 0.13845256 -0.08101787 0.16234943 0.14515494
-0.14832908 0.032251064 -0.22537917 0.008735275 0.093773544 0.1615768 -0.07867093 -0.06853202
0.11241982 0.16352896 0.029332649 0.3452708 0.062938556 0.032395948 -0.69184834 -0.3938827
-0.1375601 -0.6319252 -0.28191832 -0.09447178 0.10306293 0.05247661 -0.03277388 -0.5397704
-0.40251693 0.14201275 -0.08294951 0.2125722 0.014475308 -0.57382464 0.16386092 -0.56600595
-0.044955783 0.1518347 0.015164714 -0.46104363 -0.18060122 -0.4511713 0.16815358 0.19301213
0.28647587 0.106329195 -0.0755429 -0.23107795 0.26230687 0.40404817 -0.082241304 0.025748583
-0.28683305 0.031211598 -0.24231227 0.06792347 0.18070167 -0.2851671 0.013477051 -0.035830878
-0.14058408 0.10293664 -0.18593633 -0.036989987 0.12218124 0.06303817 0.22147465 0.0047611976
0.119403005 0.16625334 0.17461592 0.17025347 0.034351837 -0.31228498 0.033328265 0.13343054
-0.47339535 -0.42426693 -0.047795966 0.05276735 -1.1664605 -0.12653753 0.2917552 -0.23705192
-0.2059625 -0.0042571267 -0.038012482 0.23680697 -0.060465768 0.022191301 0.10154677 0.17240365
0.7098675 -0.11271136 0.25924355 0.08659383 -0.22167394 -0.026902901 0.0052152043 0.020457948
0.2868138 -0.10274306 -0.67378235 -0.26498368 -0.11815128 0.0047965418 0.16176549 -0.33041435
0.07004947 0.2580674 -0.0057295784 -0.25087488 -0.102486104 -0.14993337 0.058542296 -0.32768935
0.1817549 0.44944027 -0.15868476 -0.48036447 -0.73625845 0.10700224 -0.009107543 0.030337838
-0.056556422 -0.1077061 -0.11813665 0.027353516 0.025166472 -0.031181596 -0.0588982 0.023426605
-0.092262335 -0.0018868385 -0.059916783 0.050004568 -0.09996954 0.052793615 0.004683161 -0.047905136
-0.11043228 0.053555544 -0.037885115 0.041788697 -0.020462241 0.040891457 0.048948105 -0.13319479
-0.03991205 0.02028598 0.03283416 -0.02103131 -0.00059621537 -0.06243085 -0.1138889 -0.039230056
0.012626962 -0.03796258 -0.121245585 0.02069682 -0.10328393 0.022370188 -0.056230176 0.029965574
-0.022660615 -0.057846017 -0.038883414 -0.088312484 -0.071065865 -0.094124824 -0.08543423 -0.10478882
-0.01582419 0.04591295 0.040055227 -0.033430554 -0.109412394 -0.1009708 -0.07048603 -0.09938653
-0.04474582 -0.068713814 -0.026238853 0.0026327574 0.048452318 -0.05292638 -0.025998969 -0.02793088
-0.009740384 -0.028205618 -0.056839433 -0.07760592 0.043770574 -0.108815685 0.04438587 -0.11659413
0.0022210297 -0.0033755878 -0.07325393 -0.07175928 0.00073812675 -0.08174967 -0.07445795 0.008989562
-0.032881744 0.050507758 -0.09536828 0.0644548 0.016132047 -0.05064862 -0.013677356 -0.12421312
0.048083432 -0.07227861 0.008779514 -0.095697224 -0.035481554 -0.035289068 0.08703243 0.043355595
-0.074314125 -0.07169682 -0.04185094 -0.040942784 -0.028802276 -0.01677701 -0.04132123 0.033781078
0.026986253 -0.040010214 -0.09820725 -0.023785068 0.011913984 -0.01897452 -0.06964864 -0.07563602
-0.09429512 -0.042180985 -0.011085569 -0.007204857 0.025811816 -0.055166144 -0.020268507 0.0333626
0.023885645 0.028654566 -0.09915493 -0.00907986 -0.10997909 -0.039496563 0.056820817 0.036769237
00000000: 0141 a8bd 433f 3f3e 8e38 56be aa6d be3d
00000010: 82c6 0d3e b2ec a5bd ee3e 263e 7fa3 143e
00000020: 94e3 17be b119 043d ccc9 66be 661e 0f3c
00000030: 580c c03d 6374 253e 391e a1bd 845a 8cbd
00000040: 5d3c e63d 2374 273e 064b f03c 56c7 b03e
00000050: eee5 803d 9db1 043d f91c 31bf feaa c9be
00000060: 8edc 0cbe dac5 21bf 9957 90be 6c7a c1bd
00000070: a812 d33d b7f1 563d e73d 06bd 652e 0abf
00000080: b316 cebe ca6b 113e 6fe1 a9bd 87ac 593e
00000090: d829 6d3c 2ce6 12bf 28cb 273e c4e5 10bf
000000a0: 8e23 38bd 8e7a 1b3e 6c75 783c e90d ecbe
000000b0: 87ef 38be edff e6be 7430 2c3e f9a4 453e
000000c0: f7ac 923e 1fc3 d93d 3cb6 9abd b39f 6cbe
000000d0: 164d 863e 67df ce3e 216e a8bd b1ee d23c
000000e0: c8db 92be 77af ff3c b520 78be 761b 8b3d
000000f0: dc09 393e 6c01 92be d9ce 5c3c 66c3 12bd
00000100: 46f5 0fbe 72d0 d23d 1866 3ebe d082 17bd
00000110: 283a fa3d 281a 813d 40ca 623e d203 9c3b
00000120: 9089 f43d 513e 2a3e 84ce 323e ed56 2e3e
00000130: 83b4 0c3d d1e3 9fbe 3883 083d 04a2 083e
00000140: e060 f2be 8439 d9be b4c5 43bd 9422 583d
00000150: 944e 95bf 0e93 01be f060 953e bdbd 72be
00000160: d5e7 52be 5e7f 8bbb fab2 1bbd 877d 723e
00000170: f4aa 77bd 88ca b53c c1f7 cf3d 958a 303e
00000180: e0b9 353f 37d5 e6bd 92bb 843e 1b58 b13d
00000190: 7efe 62be 7963 dcbc 4ee4 aa3b 6d97 a73c
000001a0: 42d9 923e f46a d2bd 007d 2cbf f1ab 87be
000001b0: 4cf9 f1bd 4f2c 9d3b daa5 253e 122c a9be
000001c0: 1976 8f3d 6921 843e 30bf bbbb ac72 80be
000001d0: 3ce4 d1bd 2288 19be 0cca 6f3d e6c6 a7be
000001e0: f51d 3a3e 091d e63e 427e 22be 55f2 f5be
000001f0: 6f7b 3cbf fe23 db3d ce37 15bc 0f87 f83c
00000200: b5a7 67bd 0495 dcbd a1f1 f1bd 7b14 e03c
00000210: eb29 ce3c 8c70 ffbc 3d3f 71bd 27e9 bf3c
00000220: 09f4 bcbd cb4f f7ba 4d6b 75bd 97d1 4c3d
00000230: d5bc ccbd 1e3e 583d 3475 993b 2d38 44bd
00000240: 522a e2bd 0f5d 5b3d 6c2d 1bbd a02a 2b3d
00000250: 6ea0 a7bc cd7d 273d cf7d 483d 3764 08be
00000260: d17a 23bd c92e a63c 1d7d 063d db49 acbc
00000270: 564b 1cba 7eb7 7fbd 953e e9bd b2af 20bd
00000280: 51e1 4e3c a67e 1bbd 9b4f f8bd 618c a93c
00000290: 8686 d3bd af41 b73c 9d51 66bd 5d7a f53c
000002a0: c1a2 b9bc f2ef 6cbd 3744 1fbd 2ddd b4bd
000002b0: fb8a 91bd 84c4 c0bd 24f8 aebd 859b d6bd
000002c0: bba1 81bc 380f 3c3d f310 243d 7aee 08bd
000002d0: 9b13 e0bd c7c9 cebd fb5a 90bd 2a8b cbbd
000002e0: 6547 37bd d4b9 8cbd ddf2 d6bc 578a 2c3b
000002f0: f075 463d 55c9 58bd cafb d4bc 4dcf e4bc
00000300: 2296 1fbc 780f e7bc 77d0 68bd daef 9ebd
00000310: c648 333d c2da debd f5cd 353d e7c8 eebd
00000320: b28e 113b f738 5dbb 2806 96bd 88f6 92bd
00000330: d97e 413a 5f6c a7bd 697d 98bd f548 133c
00000340: 02af 06bd 39e1 4e3d 7250 c3bd e100 843d
00000350: 5b27 843c ed74 4fbd fd16 60bc 7363 febd
00000360: 22f3 443d cf06 94bd f3d7 0f3c e8fc c3bd
00000370: 1b55 11bd 458b 10bd 0f3e b23d a395 313d
00000380: 0132 98bd c8d5 92bd e46b 2bbd 9fb3 27bd
00000390: c0f2 ebbc f16f 89bc 7340 29bd 075e 0a3d
000003a0: 4612 dd3c c0e1 23bd e220 c9bd e7d8 c2bc
000003b0: df32 433c 7470 9bbc f2a3 8ebd 0fe7 9abd
000003c0: cd1d c1bd f8c5 2cbd 3fa0 35bc b916 ecbb
000003d0: 4d73 d33c e5f5 61bd 240a a6bc 39a7 083d
000003e0: d4ab c33c fbbc ea3c bd11 cbbd b1c3 14bc
000003f0: b83c e1bd 26c7 21bd f2bc 683d 579b 163d

fc.2.bias f4 [256]
0.94619954 -0.009064384 0.2995039 0.76096123 0.74938303 -0.36431938 0.19833289 0.27023244
1.074072 -0.171307 0.664505 -0.2536508 -0.07685464 -0.3043784 -0.18210922 0.024075432
-0.19148795 0.22091818 0.9326742 0.057316553 0.6031165 1.2760146 -0.13314803 0.3200866
0.5452915 1.305945 -0.0752364 -0.008431404 -0.020754823 -0.15350547 0.8511674 1.6343759
0.0041030725 -0.008687036 0.0860705 -0.030671526 -0.08080626 0.8642701 0.6739251 0.011311065
1.0602502 0.13676056 1.5014273 -0.051348384 -0.039677717 0.18035994 -0.11836573 -0.084154025
-0.21636611 -0.113742076 -0.113046445 -0.013270428 0.03579763 0.3268683 -0.18756187 0.7273163
-0.036041237 0.45000902 0.8907936 -0.116515316 -0.023396907 -0.034860745 -0.17399466 -0.16102213
0.04228323 0.13255668 0.024546484 0.36495897 0.30460554 0.044084106 -0.39328557 -0.022589376
0.91883373 -0.068668 0.8182754 -0.06447334 -0.07862694 0.24225916 1.3698045 -0.28123724
-0.020708105 1.1081321 0.46362388 0.33957976 -0.0013180393 0.13428055 -0.028958943 -0.17784877
0.0078711165 0.09746141 0.5665809 1.4478183 0.31017673 0.4173686 0.0023058422 0.045499492
0.5169455 1.2337239 0.18173014 -0.13640046 1.0993184 0.48694345 0.6282595 0.87756723
-0.35709336 0.5788828 -0.017941589 1.3138295 0.3137684 0.04438725 0.17705914 -0.021817159
-0.1720263 1.0791534 0.05466736 0.16413723 0.7832626 0.6478255 0.10087741 0.33172458
0.20336615 0.25372314 0.047134094 -0.24451305 -0.07182751 -0.16715194 -0.4144659 0.28659573
-0.25290298 -0.056363504 0.31596833 -0.13410601 -0.035363615 -0.026022172 0.7619965 -0.103057966
-0.27278033 0.239135 -0.07225783 -0.11568856 -0.14567894 -0.25586542 0.003733039 -0.0042674607
0.8321379 -0.021432273 0.6237864 0.19926713 1.2630711 0.026538823 0.21736321 -0.081102505
0.047567755 -0.06821525 -0.07714212 -0.020900737 -0.0026704082 0.035812695 -0.13078028 1.2746786
-0.38861486 -0.19651493 -0.19570263 -0.133395 1.5919809 0.6353091 -0.0446173 1.0787764
-0.17246827 -0.0042761853 -0.041933343 -0.072737396 0.056993507 0.027185606 0.020039141 0.09144269
-0.16486354 -0.030772349 -0.089444004 0.8414535 0.040382683 1.3672394 0.9643835 -0.050356932
-0.061301623 -0.040871114 -0.086037524 1.1515125 -0.27277362 -0.07806177 0.45488372 -0.110802576
0.033741686 0.32603303 0.109129496 -0.22767578 0.29269168 -0.05372268 0.050910544 -0.013003256
-0.0030647207 -0.0043053203 -0.06983001 -0.014103762 -0.20613034 0.6708025 0.2222229 0.67723924
-0.15206063 -0.093295634 -0.1464635 -0.13543466 0.24524751 -0.05249449 0.4586214 -0.14415987
-0.032474626 -0.28690577 -0.11742555 0.92742556 -0.099950805 0.09053327 -0.14908475 -0.2548903
-0.10367491 0.017067827 0.0031400695 0.117693745 0.079420194 -0.080018446 0.0073453533 0.030166987
0.08424645 -0.02971356 -0.08063046 -0.090336196 0.33196756 -0.057300694 -0.09415689 1.3941239
-0.08452047 -0.14316092 1.3575213 -0.09076342 0.41518816 1.0842191 -0.064930856 0.99026996
0.93680286 0.26625863 0.043729175 0.30295074 -0.04593037 0.4284323 0.36330703 -0.3006931
00000000: 223a 723f c882 14bc 9358 993e 5bce 423f
00000010: 91d7 3f3f 1288 babe c717 4b3e e85b 8a3e
00000020: 317b 893f 1a6b 2fbe 001d 2a3f 85de 81be
00000030: f765 9dbd 7cd7 9bbe d77a 3abe d739 c53c
00000040: 6b15 44be 6038 623e bdc3 6e3f c3c4 6a3d
00000050: d865 1a3f 7254 a33f f557 08be 64e2 a33e
00000060: 3998 0b3f 3529 a73f 8b15 9abd df23 0abc
00000070: 0506 aabc 8a30 1dbe 1be6 593f 3b33 d13f
00000080: 1173 863b 1254 0ebc bb45 b03d da42 fbbc
00000090: c17d a5bd ce40 5d3f 5b86 2c3f 0c52 393c
000000a0: 47b6 873f f60a 0c3e c52e c03f af52 52bd
000000b0: 1a85 22bd 47b0 383e bb69 f2bd f258 acbd
000000c0: 148f 5dbe 9bf1 e8bd e584 e7bd 366c 59bc
000000d0: 89a0 123d 485b a73e 3810 40be 6731 3a3f
000000e0: fa9f 13bd 9567 e63e 0d0b 643f 959f eebd
000000f0: dfaa bfbc 24ca 0ebd a82b 32be fce2 24be
00000100: 2e31 2d3d f0bc 073e b515 c93c e7db ba3e
00000110: 42f5 9b3e 8991 343d ba5c c9be 5b0d b9bc
00000120: b038 6b3f cfa1 8cbd 7f7a 513f 990a 84bd
00000130: 2907 a1bd c912 783e c155 af3f 54fe 8fbe
00000140: 0ba4 a9bc 46d7 8d3f 1c60 ed3e 66dd ad3e
00000150: 0fc2 acba d780 093e 4e3b edbc fd1d 36be
00000160: dbf5 003c d999 c73d 720b 113f 1c52 b93f
00000170: 7ccf 9e3e 56b1 d53e 9d1d 173b ad5d 3a3d
00000180: 8a56 043f aaea 9d3f 7717 3a3e 90ac 0bbe
00000190: 77b6 8c3f a750 f93e 9dd5 203f 3fa8 603f
000001a0: f1d4 b6be aa31 143f 3dfa 92bc 912b a83f
000001b0: 40a6 a03e 68cf 353d fe4e 353e e6b9 b2bc
000001c0: aa27 30be b321 8a3f e2ea 5f3d 9713 283e
000001d0: e683 483f e4d7 253f d198 ce3d ced7 a93e
000001e0: 373f 503e 00e8 813e ae0f 413d a161 7abe
000001f0: 4d1a 93bd e129 2bbe e034 d4be adbc 923e
00000200: 807c 81be 6bdd 66bd 9ac6 a13e 1653 09be
00000210: 70d9 10bd 732c d5bc 3412 433f 0e10 d3bd
00000220: dda9 8bbe cedf 743e eafb 93bd 20ee ecbd
00000230: dc2c 15be cb00 83be 00a6 743b 0ed6 8bbb
00000240: fd06 553f bc92 afbc 77b0 1f3f af0c 4c3e
00000250: 50ac a13f f267 d93c 7694 5e3e 1219 a6bd
00000260: 68d6 423d 70b4 8bbd b0fc 9dbd 0638 abbc
00000270: 0402 2fbb 55b0 123d 44eb 05be ab28 a33f
00000280: 87f8 c6be 363b 49be 4566 48be b398 08be
00000290: 08c6 cb3f 9ea3 223f a1c0 36bd 5815 8a3f
000002a0: 869b 30be 3e1f 8cbb 4cc2 2bbd 58f7 94bd
000002b0: 0672 693d 59b4 de3c 2029 a43c 4e46 bb3d
000002c0: fdd1 28be 4b16 fcbc 6b2e b7bd 7f69 573f
000002d0: 5068 253d b301 af3f d6e1 763f 1243 4ebd
000002e0: 6917 7bbd 7868 27bd 7134 b0bd c364 933f
000002f0: fca8 8bbe d9de 9fbd 85e6 e83e 76ec e2bd
00000300: b934 0a3d cded a63e 497f df3d d723 69be
00000310: afdb 953e 500c 5cbd 9387 503d 9c0b 55bc
00000320: 7bd9 48bb a513 8dbb 0903 8fbd 7713 67bc
00000330: d513 53be b6b9 2b3f 668e 633e 8d5f 2d3f
00000340: c8b5 1bbe c811 bfbd 87fa 15be 62af 0abe
00000350: 2a22 7b3e 7604 57bd 6dd0 ea3e a59e 13be
00000360: 1d04 05bd 50e5 92be cf7c f0bd c36b 6d3f
00000370: 02b3 ccbd 8269 b93d aca9 18be fb80 82be
00000380: 8353 d4bd d4d1 8b3c a0c9 4d3b 6b09 f13d
00000390: 0ea7 a23d b6e0 a3bd 4ab1 f03b c220 f73c
000003a0: 6789 ac3d da69 f3bc 9521 a5bd 2f02 b9bd
000003b0: a7f7 a93e 22b4 6abd 54d5 c0bd a772 b23f
000003c0: 1119 adbd c798 12be 42c3 ad3f 2ce2 b9bd
000003d0: 8b93 d43e b1c7 8a3f 78fa 84bd 5582 7d3f
000003e0: 50d2 6f3f 0d53 883e 5d1d 333d 5c1c 9b3e
000003f0: 7c21 3cbd 7a5b db3e 6103 ba3e 72f4 99be

fc.4.weight f4 [25, 256]
0.29165882 0.0619227 0.46905795 0.7378576 0.16171598 -0.08613936 -0.004484951 0.088801235
0.2560703 -0.30725563 0.37655696 -0.004894076 0.040851384 0.10796213 -0.12886061 -0.24976197
-0.6947648 0.04000705 0.34306723 -0.04500788 -0.027938243 0.29206535 -0.008043155 0.12873755
0.046451695 0.19034368 -0.21576138 -0.050400063 -0.051166855 0.2031212 0.22433598 0.36339766
-0.32405287 0.04049549 -0.16326803 0.5102329 0.14153062 0.04477683 0.1936781 -0.20301442
0.19332887 -0.043088827 0.3332511 -0.01350835 -0.05641488 0.41595304 -0.38514698 -0.39372775
-0.37553003 0.010652043 0.009693798 0.076916076 -0.3489044 0.3936415 0.38554332 0.73682654
0.31341314 -0.029556576 0.12986845 -0.59572554 -0.41069442 -0.40746227 0.07725663 -0.01236215
0.14796351 0.45937884 -0.40992427 0.08615482 -0.12792249 0.08983612 0.00332222 0.15989059
0.17512804 -0.040361933 0.19816056 0.046841666 -0.6328091 -0.5709257 0.28563377 -0.8103187
0.41995162 0.3727132 0.4273966 0.39237043 0.38185406 0.096050225 -0.027291048 0.040770106
-0.018120237 -0.1648821 0.22556783 0.32185403 0.30294788 0.07165715 -0.031078855 0.22619922
0.65224427 0.29846054 0.40124252 -0.37741604 0.2957719 0.66494817 0.09706541 0.3038338
-0.17487542 0.111227676 -0.0032620467 0.30617753 0.47739965 0.040096506 0.18923599 -0.051051892
-0.119729094 0.18191925 -0.08936915 -0.6715148 0.3575914 0.20200424 0.00489486 0.30691817
0.044864777 0.09949951 -0.19143906 0.124401845 -0.27675658 0.22692578 -0.076594345 0.20569237
0.06878146 0.46243998 0.1058082 -0.28649032 0.02968485 -0.3946381 0.3117076 0.1920001
0.14865077 0.21876334 -0.03791957 -0.0028079676 -0.42916244 -0.08658666 0.07052846 0.022770219
0.2713225 -0.33720717 0.61639947 -0.009665214 0.32252926 0.098631844 0.37708786 -0.05771423
-0.012500562 -0.003724446 0.008597806 0.026194967 0.23635077 -0.045994125 -0.01781623 0.2602931
-0.08022697 -0.08333098 -0.005317363 -0.0106974 0.26962557 0.24565747 -0.16022876 0.3489429
0.26928535 0.24039875 0.08341362 -0.03887054 0.05592159 -0.3575689 0.0544218 0.16103575
0.21222147 0.023441896 -0.019221334 0.2613155 -0.007131733 0.26146626 0.21935624 0.12783079
0.02913699 0.00019710511 -0.06715276 0.36286837 0.16882895 -0.027722277 0.45066798 -0.12567429
-0.31232837 -0.18239205 0.5117725 -0.0050601866 0.5915364 0.03645096 -0.59579897 0.046201587
0.26839408 -0.020474546 -0.058705576 -0.100652084 -0.26647672 0.16593942 0.24347447 0.15295863
-0.34859544 0.17700042 0.019584183 0.10656738 0.051539008 0.55367935 0.19096364 0.20587488
-0.0021977227 -0.1885596 -0.029490909 0.23211482 -0.054391935 -0.36648935 -0.15792339 -0.46060786
0.0074634403 -0.075798385 0.07713451 -0.122922175 0.38334316 0.32078865 0.10663907 0.3583321
-0.16059723 -0.037678834 -0.026600294 -0.06345043 0.17672127 -0.013139427 -0.36067337 0.2620892
-0.7188447 0.18008396 0.28745848 0.3789288 0.19535866 0.33904958 0.05556803 0.19606309
0.27307102 0.15963605 0.027741201 -0.2591851 0.26493743 0.3762195 0.3946454 -0.24581367
00000000: 4e54 953e a8a2 7d3d 5d28 f03e 3ce4 3c3f
00000010: e098 253e d569 b0bd 7ff6 92bb 6cdd b53d
00000020: a51b 833e 9c50 9dbe 13cc c03e 7c5e a0bb
00000030: c853 273d 401b dd3d 09f4 03be 9ac1 7fbe
00000040: 1bdc 31bf 6fde 233d 82a6 af3e 2f5a 38bd
00000050: bede e4bc 9789 953e 70c7 03bc c7d3 033e
00000060: 2244 3e3d 74e9 423e 8df0 5cbe 4c70 4ebd
00000070: 5694 51bd 01ff 4f3e 55b8 653e 420f ba3e
00000080: 42ea a5be 99de 253d bc2f 27be a09e 023f
00000090: 67ed 103e e967 373d 8d53 463e 03e3 4fbe
000000a0: 01f8 453e e97d 30bd e39f aa3e 2052 5dbc
000000b0: 4a13 67bd ccf7 d43e fc31 c5be af96 c9be
000000c0: 7945 c0be e885 2e3c bcd2 1e3c 2d86 9d3d
000000d0: 99a3 b2be 618b c93e ef65 c53e aaa0 3c3f
000000e0: b077 a03e a220 f2bc 3cfc 043e 7881 18bf
000000f0: 8a46 d2be e59e d0be b938 9e3d 9d8a 4abc
00000100: bf83 173e b433 eb3e 98e1 d1be f071 b03d
00000110: 1dfe 02be 00fc b73d 9ab9 593b 5cba 233e
00000120: c454 333e 8e52 25bd 9aea 4a3e 0cdd 3f3d
00000130: c7ff 21bf 3028 12bf 973e 923e 0c71 4fbf
00000140: e603 d73e 44d4 be3e bad3 da3e c7e4 c83e
00000150: 6082 c33e fbb5 c43d 7a91 dfbc 8efe 263d
00000160: e470 94bc dad6 28be 41fb 663e 0dca a43e
00000170: fc1b 9b3e fcc0 923d 1599 febc c5a0 673e
00000180: 7bf9 263f d2cf 983e a96f cd3e ad3c c1be
00000190: 6a6f 973e 0b3a 2a3f 3bca c63d 1b90 9b3e
000001a0: 8b12 33be 56cb e33d 10c8 55bb 4dc3 9c3e
000001b0: ba6d f43e 3c3c 243d 14c7 413e ca1b 51bd
000001c0: 8734 f5bd 0a49 3a3e 2c07 b7bd 65e8 2bbf
000001d0: 3816 b73e 33da 4e3e 1065 a03b 6124 9d3e
000001e0: 21c4 373d 66c6 cb3d 9a08 44be 65c6 fe3d
000001f0: 0ab3 8dbe 3b5f 683e 7fdd 9cbd 05a1 523e
00000200: 4bdd 8c3d efc4 ec3e f8b1 d83d dcae 92be
00000210: a42d f33c 010e cabe 2398 9f3e ad9b 443e
00000220: e837 183e 7f03 603e 8d51 1bbd e105 38bb
00000230: 2ebb dbbe 5954 b1bd 3a71 903d 9c88 ba3c
00000240: c8ea 8a3e 6ba6 acbe 5bcc 1d3f d95a 1ebc
00000250: 8e22 a53e 7eff c93d a911 c13e c265 6cbd
00000260: 28cf 4cbc d615 74bb d0dd 0c3c d496 d63c
00000270: f005 723e 5664 3cbd 58f3 91bc 2345 853e
00000280: 0a4e a4bd 6fa9 aabd 463d aebb 2644 2fbc
00000290: 5d0c 8a3e a28d 7b3e 0213 24be a5a8 b23e
000002a0: c5df 893e 172b 763e c3d4 aa3d b736 1fbd
000002b0: 0a0e 653d 4513 b7be 65e9 5e3d 8ee6 243e
000002c0: 9650 593e 3809 c03c 0f76 9dbc 25cb 853e
000002d0: 50b1 e9bb e8de 853e ec9e 603e 13e6 023e
000002e0: b2b0 ee3c 00ae 4e39 6387 89bd e2c9 b93e
000002f0: 7fe1 2c3e d419 e3bc f4bd e63e c3b0 00be
00000300: 81e9 9fbe fbc4 3abe 8603 033f eccf a5bb
00000310: ee6e 173f 9a4d 153d 4886 18bf e03d 3d3d
00000320: f36a 893e 3cba a7bc 4275 70bd ae22 cebd
00000330: a36f 88be 06ec 293e 5f51 793e 30a1 1c3e
00000340: 1a7b b2be 993f 353e 026f a03c 0040 da3d
00000350: 911a 533d eebd 0d3f f98b 433e ddd0 523e
00000360: ab07 10bb c515 41be eb96 f1bc 82af 6d3e
00000370: 14ca 5ebd 7ea4 bbbe abb6 21be cbd4 ebbe
00000380: e08f f43b 2f3c 9bbd b3f8 9d3d 9fbe fbbd
00000390: 8e45 c43e 693e a43e 9665 da3d 4e77 b73e
000003a0: 9a73 24be 1f55 1abd dce8 d9bc 4df2 81bd
000003b0: 6cf6 343e c046 57bc 2eaa b8be 8e30 863e
000003c0: 3506 38bf ee67 383e c22d 933e f502 c23e
000003d0: 1a0c 483e e897 ad3e 4d9b 633d c3c4 483e
000003e0: f7cf 8b3e a277 233e 8441 e33c e9b3 84be
000003f0: e1a5 873e d89f c03e f60e ca3e 94b6 7bbe

fc.4.bias f4 [25]
0.5589701 0.5338955 0.48840648 0.5218813 0.83248436 0.34691447 0.34944993 0.46576312
0.39594764 0.5068749 0.41256636 0.35816616 0.31686682 0.34593046 0.44889453 0.44720292
0.34375802 0.27848127 0.41840187 0.5047319 0.5000347 0.31790802 0.40690348 0.5167043
0.6942718
00000000: aa18 0f3f 60ad 083f 6a10 fa3e 039a 053f
00000010: b21d 553f c69e b13e 1aeb b23e 8178 ee3e
00000020: a6b9 ca3e 8ec2 013f e63b d33e 8e61 b73e
00000030: 5e3c a23e cc1d b13e 81d5 e53e c8f7 e43e
00000040: 0d01 b03e 1995 8e3e c538 d63e 1c36 013f
00000050: 4602 003f d7c4 a23e a755 d03e bc46 043f
00000060: ccbb 313f
