Test1/DDQN_Model_1.pt (torch, 735751 bytes, 10 tensors)

fc1.weight f4 [64, 8]
000000 70 15 98 3e cc a7 60 3f e5 1f 08 40 c1 58 68 3f
       0.29703856 0.8775604 2.1269467 0.9076043
000010 52 36 fa be 99 4f 86 bf de 3f 04 be 24 9f 9f bd
       -0.48869568 -1.0493041 -0.12914988 -0.077940255
000020 3e a6 f2 3c d0 db 41 3d 4e 54 7d 3e d1 76 c7 be
       0.029620286 0.04732877 0.24739191 -0.38957837
000030 da 54 ad be cf 14 93 be 26 8c 00 be ff ff b4 3d
       -0.338538 -0.28726813 -0.12553462 0.0883789
000040 c2 29 84 3d c6 95 8d 3f ab 24 8e 40 0d d7 e6 3f
       0.06453277 1.1061332 4.441976 1.8034378
000050 56 3d 80 3e 34 2b 0c 3e f7 f7 82 3e c8 27 4c 3e
       0.25046796 0.13688356 0.25579807 0.1993705
000060 84 67 a7 be ed b9 d7 3d 56 0d 10 3f f1 06 9b 3e
       -0.32696164 0.105335094 0.5627035 0.30278733
000070 ec 33 50 3d 1e 6d 01 bf a7 0f a6 bd e4 51 0d 3e
       0.050830767 -0.50557125 -0.08108454 0.1380077
000080 d7 52 64 3e 15 51 6f be a2 5a 20 bd 48 d4 a2 bd
       0.22297226 -0.23370774 -0.039148934 -0.07950646
000090 da 6e ae 3d c5 f2 e3 bd 48 1a d9 3d af e3 8a 3e
       0.08517237 -0.11130289 0.10600716 0.27126834
0000a0 95 82 5b 3f 60 f8 ff bf 1a a4 a7 3f 5b 49 27 be
       0.8574613 -1.9997673 1.3096955 -0.16336577
0000b0 0d 0d 6b bc a3 a6 c6 bc bd 0f 6f 3e 26 49 28 3d
       -0.014346373 -0.02424938 0.23345847 0.041085385
0000c0 6b 5d a2 3f 68 1d b1 bc e5 b5 c7 bf fa b7 df 3f
       1.2684759 -0.021620467 -1.5602385 1.747802
0000d0 35 92 5b 3e df c8 12 be 57 31 55 3e 4d 94 08 3e
       0.21442492 -0.14334439 0.20819603 0.13337822
0000e0 e8 27 72 be a8 0b f2 bd 60 88 61 3d 0d ca 95 3e
       -0.23648036 -0.118186295 0.055061698 0.29255715
0000f0 78 09 c4 bd 08 b9 9a be 45 d1 88 3e 68 9f 94 3d
       -0.095721185 -0.30219293 0.2672216 0.07256967
000100 b0 e8 0e 3e e8 eb 0b 3e 8b 19 a4 3e 10 cf 96 3c
       0.1395595 0.1366421 0.32050738 0.018409282
000110 bb ee 90 be 20 40 38 bc b0 5c ae 3d 3f c1 a1 3e
       -0.28307137 -0.011245757 0.085137725 0.31592748
000120 b2 e7 cc be 2b 7d 25 bc 69 2e a3 3f c2 b2 21 40
       -0.4002052 -0.010100643 1.2748538 2.5265355
000130 d9 b3 28 bf b5 83 27 be 2b 05 cf bf e6 2a 24 3f
       -0.65899426 -0.16358836 -1.6173452 0.6412796
000140 d8 95 9d bf b3 18 e1 3d cf 17 11 3e db b2 38 3f
       -1.2311354 0.10991039 0.14169239 0.7214791
000150 2e 4b f9 3d 1b c0 18 3e 9d ed 54 bd 77 00 ed be
       0.121725425 0.14917032 -0.05198442 -0.46289417
000160 4e b1 a6 bf 76 e9 fc 3e 40 28 e9 bf 2a 24 79 40
       -1.3022859 0.49396867 -1.8215408 3.8928323
000170 22 f8 06 bf 1a f3 f0 bd 04 72 3c bf 6d 17 19 be
       -0.5272237 -0.11765118 -0.73611474 -0.14950342
000180 e3 a3 94 3e 8d 45 60 3f dd 56 0a 41 f2 f2 ed 40
       0.29031286 0.87606126 8.646207 7.4359064
000190 03 9d c5 bc d1 28 64 3d 40 72 a6 3c 05 77 02 3d
       -0.02412272 0.055702988 0.02031815 0.031851787
0001a0 9b 13 bc bd 69 3c 2d 3d 7d 93 84 c1 a9 05 16 3f
       -0.09183427 0.04229394 -16.572016 0.58602387
0001b0 d4 90 b0 3c 69 49 3b 3b 03 49 12 3e 24 9b 81 bc
       0.021553434 0.0028577691 0.14285664 -0.015821047
0001c0 38 14 3c 3d e6 38 61 be 7f a0 80 3e 20 c6 64 bc
       0.04591772 -0.21994361 0.2512245 -0.013963252
0001d0 88 aa 59 bd 57 fe 8b 3e f0 2e a9 bc 78 61 59 bd
       -0.053141147 0.27342483 -0.020652264 -0.05307147
0001e0 04 fd 1b 3f 2c f5 12 3d da 21 8e 41 4b f5 16 bf
       0.60932946 0.035878345 17.76653 -0.5896804
0001f0 4d 70 c8 3d 25 f1 51 bd c0 6a 0a 3e f7 9d c4 ba
       0.09787045 -0.051255364 0.13517284 -0.001500069
000200 d0 fc 48 3e 67 6f 33 3e 1d d8 ee 40 d6 9d 42 41
       0.1962769 0.17522965 7.463881 12.163534
000210 36 84 fb 3a ea f0 2d bc 11 f4 0b be f1 4a bb bd
       0.0019189182 -0.01061652 -0.13667323 -0.09145153
000220 54 97 59 3e 21 8f 99 3e d2 9d aa 40 99 f8 49 41
       0.21249133 0.2999201 5.331765 12.623193
000230 e0 b4 cf 3b cd df de 3b bf 9e 02 3e d8 1b ad 3d
       0.0063387007 0.0068015815 0.1275587 0.084525764
000240 f2 4f 3c c0 28 63 5e bf 29 17 56 c0 c4 57 11 40
       -2.9423795 -0.8687005 -3.3451636 2.2709818
000250 2f c2 e0 bd a6 0a c2 3d 2e 8c 72 3c e9 d2 b7 3d
       -0.109745376 0.09474687 0.014803929 0.08975775
000260 18 41 30 be 6a ec 6a be e7 8e 69 3e 21 b8 fe bd
       -0.17212331 -0.22941747 0.22808419 -0.124374636
000270 2e 3b a6 be ef f2 c8 bd 26 39 fc bd d0 61 44 be
       -0.32467026 -0.09811961 -0.12315588 -0.19177938
000280 11 4c c4 be a0 7b 7f 3c a4 09 ad 3e 26 05 02 bd
       -0.38339284 0.015593439 0.33796418 -0.03174319
000290 64 0e 65 be 74 b2 a8 be d2 1e e0 bd 7d 12 5d be
       -0.22368771 -0.3294865 -0.109433785 -0.21589084
0002a0 be 13 ff 3e 26 0f ba 3f d8 44 e8 3f 6d 34 e1 3f
       0.4981975 1.4535873 1.814601 1.7594124
0002b0 20 3a 1a 3d f6 7b 4f bc 45 b5 04 3e ec 40 da 3d
       0.03765309 -0.012663832 0.12959774 0.10656914
0002c0 17 ad c0 bf f5 ed 02 be 30 7f 67 bf 4d c9 3f be
       -1.5052823 -0.12786086 -0.9042845 -0.18729134
0002d0 37 83 28 be c7 93 b1 bd 89 11 f1 bd 4c 4c fd 3c
       -0.16456304 -0.086707644 -0.11770923 0.03092017
0002e0 16 a3 44 c0 44 ba 0f 3f 51 93 af c0 d1 6a 7a bf
       -3.072454 0.56143594 -5.486733 -0.9781924
0002f0 c4 f2 a7 3e c4 c8 13 bb b2 3d ca bd 4c b8 b5 3d
       0.32802403 -0.0022550086 -0.09875049 0.088730425
000300 00 90 8b be b0 cb 97 bd 72 4e 98 be b7 31 97 3e
       -0.272583 -0.07411897 -0.2974735 0.29530117
000310 00 45 7a bb a8 ef 28 bd ee 77 55 be 2a 07 91 be
       -0.00381881 -0.04124418 -0.20846531 -0.28325778
000320 d8 0a da be e8 44 79 be c2 c5 61 41 4c ca ab be
       -0.42586398 -0.24342692 14.110781 -0.33552778
000330 b9 ef f8 3d 9d a9 c8 3c be 56 0c 3e b5 74 a0 3d
       0.121550985 0.02449494 0.13704965 0.0783476
000340 5c 1f bb 3f 16 3e d3 3e 5e 37 9c 40 fc 92 62 3d
       1.4618945 0.41258305 4.8817587 0.055315956
000350 d6 33 c8 bb d7 98 86 bc 65 36 fd bd 31 43 b0 bd
       -0.006109695 -0.016430302 -0.123638906 -0.08606566
000360 3c 54 6f be e7 64 e2 3e 12 40 88 c0 e6 92 5f 41
       -0.23371977 0.44217607 -4.257821 13.973364
000370 06 d6 ec ba 3c c0 8a bc 3e 13 b3 3c 05 8f ca b8
       -0.0018069155 -0.016937368 0.021859761 -9.65875e-05
000380 5b e0 80 c0 69 c4 c3 3e 50 ea a8 bf c3 1d 4f bf
       -4.027387 0.38235787 -1.3196507 -0.8090479
000390 8e 31 3a bf e5 86 82 bd ad 9d 80 bf 53 82 29 3e
       -0.72731864 -0.06373385 -1.0048119 0.16553621
0003a0 a8 0e 86 3d e8 bf 5d bd 64 25 13 3e 24 0d 73 be
       0.06545764 -0.054138094 0.14369732 -0.23735482
0003b0 36 b5 e9 bd 83 4a a6 be f0 2d 2f 3d 4e dd 1a 3e
       -0.11411516 -0.32478723 0.04276842 0.15123484
0003c0 40 ef 8c bf 25 74 52 bf cf 36 b4 c0 7e 23 0c bd
       -1.1010513 -0.8220847 -5.6316905 -0.034213535
0003d0 5d 86 c6 bc 36 e9 12 3e ec ce cc bd 4f c7 35 3d
       -0.024233991 0.14346775 -0.10000405 0.04437953
0003e0 f1 96 6e 3c b0 cb 67 be de e0 ad bc bd bd 56 3d
       0.014562354 -0.22636294 -0.02122539 0.052427042
0003f0 0f 6f 79 be 6a 10 89 be 9f 78 58 3e e7 01 03 3c
       -0.24358772 -0.26770335 0.21139763 0.007996059

fc1.bias f4 [64]
000000 5d 04 47 3e 75 9f 6a bc ef c5 97 be 2c ea 69 bd
       0.19435258 -0.014320244 -0.296432 -0.05710809
000010 40 50 49 be 28 eb 32 3f a7 8c 2a bf 24 23 14 be
       -0.19659519 0.6989007 -0.6662087 -0.1446653
000020 4b ee a1 be eb f5 6d bd 9b dd 84 be 3e 8d 7a 3e
       -0.31627116 -0.058095854 -0.25950322 0.24467942
000030 81 4a 3b bf 24 a9 0f 3e 98 c9 98 be 07 66 af be
       -0.7316056 0.14029366 -0.29841304 -0.34257528
000040 d5 84 56 bd d4 56 3f be 13 03 65 3f 11 aa 84 3d
       -0.052372772 -0.18685466 0.89457816 0.0647775
000050 a3 fd 65 3c 9e b4 5a bf c5 08 95 3d bd fa ba 3e
       0.0140375225 -0.8543185 0.07277063 0.36519423
000060 20 71 4a bc 95 32 cb 3e b7 89 9f bf 34 81 db bd
       -0.012356073 0.3968703 -1.2463902 -0.10718003
000070 82 0c 1f 3f 9b 6c 40 be f1 3a 39 3f 3b 6e a3 3d
       0.6212846 -0.1879143 0.7235556 0.07980009
000080 81 e6 c7 3e 8f c6 30 be 80 b0 48 3f 2a 94 29 3d
       0.39043048 -0.17263244 0.7839432 0.041401066
000090 8e a5 34 bd 43 5c 02 3d 7c f3 98 bd 31 8b 3e 3f
       -0.044103198 0.03182627 -0.07468316 0.7443114
0000a0 4a a9 4c be e9 03 02 bf 38 fa cf 3e a8 57 33 be
       -0.19986454 -0.50787216 0.4062059 -0.17513907
0000b0 c6 f3 5d be c1 67 9c be 62 42 71 bd 5d b5 06 3e
       -0.21675023 -0.30547908 -0.0589012 0.13155122
0000c0 24 a1 e6 bd ff 01 2a bd 77 a3 33 be a6 8e 81 be
       -0.11261204 -0.04150581 -0.17542826 -0.25304145
0000d0 5d 4b 5a bd 34 5e 81 3e f5 76 61 be c7 56 6b bf
       -0.05329453 0.25267184 -0.22018035 -0.91929287
0000e0 fd 54 99 bd ba 3f 69 3d 17 32 a8 be de 2f 2d be
       -0.07486913 0.05694554 -0.32850716 -0.16912791
0000f0 bf b2 48 be 7f 6b be be cd 94 2a 3e 55 10 3f 3d
       -0.19599436 -0.37191388 0.16658325 0.046646435

fc2.weight f4 [256, 64]
000000 a0 0e 82 bd 90 05 fb 3d 88 2e ba bc 3a 6c 83 bd
       -0.06350446 0.1225692 -0.022727266 -0.06417127
000010 28 d9 8c 3c da e4 f3 bd f8 59 d5 3d 58 dd 83 3d
       0.017193392 -0.11908884 0.10417551 0.06438702
000020 74 bf 44 3d a8 47 3f bd 8a 54 87 3d f0 eb e2 bc
       0.048034146 -0.046699196 0.066079214 -0.027700394
000030 d8 4c e0 bc 52 79 d6 bd 80 1b ba 3c 38 83 dd 3d
       -0.027380392 -0.10472359 0.022718191 0.108160436
000040 b0 e5 47 3c a0 08 03 3c 34 f9 57 bd 50 aa d4 bd
       0.012200758 0.007997662 -0.052727893 -0.10384047
000050 58 fa f2 3c d6 22 b5 bd 72 9f c8 3d 44 d4 da bd
       0.029660389 -0.08844535 0.09796037 -0.10685018
000060 00 74 65 b9 c8 65 21 3d a8 59 09 3d 6e 1f c2 bd
       -0.00021882355 0.039403707 0.03353277 -0.09478651
000070 a0 ea 34 bc 96 6d c9 bd 1a 40 a7 3d 76 c0 b4 3d
       -0.011042267 -0.09835355 0.08166523 0.088257715
000080 80 e0 61 bd b8 69 aa 3d 60 5f 6f bd cc e5 b7 bd
       -0.05514574 0.083209455 -0.058440566 -0.08979377
000090 80 69 6f 3c d4 a5 51 3d bc 65 8b 3d e6 51 cc bd
       0.0146125555 0.051183537 0.06806514 -0.099765584
0000a0 fc f7 01 3d 28 27 d1 3c 64 53 20 3d 88 5d 9f bd
       0.031730637 0.025531366 0.039142027 -0.077815115
0000b0 b0 31 51 3c bc a0 f9 bd c0 08 1a 3c 98 af 9e bd
       0.012768194 -0.12188861 0.0094015 -0.077483356
0000c0 20 8c f3 bb f0 5b f6 bc 6c b6 e9 bd 48 3b fb 3d
       -0.0074324757 -0.030073136 -0.11411747 0.122671664
0000d0 10 75 1f bd a0 e6 69 bd 08 cb 0a bd 70 ce 2f 3c
       -0.03893 -0.057104707 -0.033885032 0.010730371
0000e0 80 41 89 3b 2c de b3 3d 60 2e 54 bd 5a 57 b2 3d
       0.0041887164 0.0878261 -0.05180204 0.08708067
0000f0 e8 8a 21 3d a0 35 a7 3c 90 83 11 3c 92 f2 c4 3d
       0.039439112 0.020411313 0.008881465 0.09616579
000100 70 4a 26 40 a4 26 ea 3d ec c2 f7 3e 3b 05 14 3e
       2.5982933 0.11433151 0.483909 0.1445512
000110 ce 8d 71 3c c3 1e 76 3e e3 f5 e3 be ec 5f 7f bd
       0.0147432815 0.24035172 -0.44523534 -0.062347338
000120 42 0d aa 3d 94 a1 b5 be ec 72 1b 3c 99 22 c7 be
       0.0830331 -0.35474837 0.009487849 -0.38893583
000130 62 4c c5 3f 46 9a 0a 3e 54 27 99 3d e4 02 80 c1
       1.5413935 0.13535413 0.07478204 -16.001411
000140 57 42 ce 3b f8 c0 d3 bd ac 27 24 bd 6c 95 92 3d
       0.0062945294 -0.1033954 -0.040076897 0.07157406
000150 53 3e 1c be 63 0d 56 3f f3 fd 5a 3e a7 17 c6 bf
       -0.1525815 0.83614177 0.21385936 -1.5475968
000160 d2 89 e3 3d a3 d3 e5 3e b5 56 bd bf 96 d8 db 3e
       0.111102715 0.44888029 -1.4792086 0.4293868
000170 bc 49 80 bf ce 2b 91 3d 5e 1f 1c bf 58 53 4e 3d
       -1.0022502 0.07088433 -0.6098536 0.05037245
000180 da d0 f5 bf 64 3f 9f bd 19 c5 3e be f6 e3 84 3e
       -1.9204361 -0.07775763 -0.18629874 0.2595517
000190 d8 65 01 bd 9b d5 01 bf 14 84 b5 bd f0 ba f4 bd
       -0.031591266 -0.5071656 -0.088630825 -0.11949718
0001a0 81 2c 77 3f 2c a7 b2 be 66 f7 55 be 18 65 d7 bc
       0.9655228 -0.34893167 -0.20895156 -0.026293322
0001b0 50 0c 77 3d b4 44 cb bd 0e b8 f1 bd 48 c2 d8 bd
       0.060314476 -0.099252135 -0.11802684 -0.10583931
0001c0 6e b6 f0 3d 88 7c ed 3d e8 71 0d 40 10 d0 a2 3d
       0.11753546 0.11596018 2.2100773 0.07949841
0001d0 79 5d 8c c0 ee a7 54 be 0c 9c e6 be 49 e0 2e c0
       -4.38641 -0.20767185 -0.4504093 -2.7324393
0001e0 80 ac af bc cb c6 43 bd bc 62 5b bf ff 29 0b be
       -0.02144456 -0.047797006 -0.8569753 -0.13590239
0001f0 5b 57 7e bd e3 9e 00 bf 42 08 13 c0 f2 c7 8a bd
       -0.062095027 -0.5024244 -2.297379 -0.06776418
000200 ed 6a 28 bf d4 be 4c bc db a8 3d bd c0 d3 ef 3d
       -0.65788156 -0.012496669 -0.04630361 0.1171031
000210 d4 af e0 3d be d9 12 bf 95 00 b8 3e 40 99 7b 3c
       0.109710366 -0.573635 0.35937944 0.015356362
000220 d4 47 80 3d 1d 2d 22 bf cc 1c 67 be f5 a9 ab bf
       0.062637 -0.6335009 -0.22569579 -1.3411242
000230 65 1c 20 c0 b0 6d 79 3e d8 f0 ca bc f2 55 a6 bf
       -2.501733 0.24358249 -0.024773046 -1.2994978
000240 e9 45 b7 c0 a5 f3 62 c0 d7 de ff be fa 31 21 bd
       -5.727284 -3.546121 -0.499747 -0.039354302
000250 18 6e b8 3d 5a eb 35 3f a8 0a f7 bd 79 52 b7 bf
       0.09005374 0.71062243 -0.120625794 -1.4322044
000260 80 ee 0c 3d 3d 9b 87 bf 3f 39 62 3f b1 c3 21 c0
       0.03440714 -1.059425 0.883686 -2.527569
000270 e6 85 3e bf f6 6f 9d 3d 69 51 54 3f 34 99 44 bd
       -0.7442306 0.076873705 0.8293672 -0.04799767
000280 85 49 0f c0 86 54 e5 bd 8b c5 d9 3e 89 6a 6b bf
       -2.2388623 -0.11197762 0.42533526 -0.91959435
000290 d0 e7 42 bc ff 84 9f 3e 44 aa ac 3d 71 a2 aa 3e
       -0.011896089 0.31156155 0.08430913 0.33327058
0002a0 de d2 86 3e 0b 74 c2 be 22 b1 c8 3f a8 a8 ac bd
       0.26332754 -0.3797916 1.5679057 -0.08430606
0002b0 82 b0 b2 bd 38 45 19 bd 24 e4 cb bd 7d 73 84 40
       -0.087250724 -0.037419528 -0.09955624 4.1390977
0002c0 b2 a6 b7 3d 29 10 b1 bd 84 30 96 3c 86 63 f1 3d
       0.089673415 -0.086456604 0.01833368 0.11786561
0002d0 c2 9d 22 c0 46 b3 f6 3d f3 4b cc 3e 68 65 38 bf
       -2.5408788 0.120459124 0.39901695 -0.72029734
0002e0 00 ef c7 3c 35 48 7f be aa 23 94 bd c8 a8 9f bc
       0.024405956 -0.24929889 -0.07233365 -0.01948966
0002f0 2b ce e5 bc 03 42 3c c0 28 b3 5e be 30 80 ea 3c
       -0.02805241 -2.941529 -0.2174803 0.028625578
000300 af 2c c2 3e ec a7 e6 bb 05 b1 92 3e 29 dc 7a 3d
       0.37924716 -0.007039061 0.2865068 0.061245117
000310 6c 0c 7e bd cf 75 56 3f e2 7c fe bf 44 25 11 3d
       -0.062023565 0.8377351 -1.9881861 0.03543593
000320 e2 5b c0 bd ed 99 56 3e fb 81 51 3e fc 6e 90 be
       -0.09392525 0.20957156 0.2045974 -0.28209674
000330 6c 02 e8 bb ed f9 00 be dc 81 8e 3d 3f fd aa c0
       -0.007080367 -0.12595339 0.069583625 -5.343414
000340 64 0e 10 c0 4d 96 02 c0 46 04 b4 be a8 f6 a9 3d
       -2.2508783 -2.0404236 -0.3515951 0.08298999
000350 08 b3 fc bb f9 3e e0 3d 70 28 29 3e 21 e6 8b 3e
       -0.007711772 0.10949511 0.16519332 0.27324012
000360 16 af 96 bd ba b7 a6 bf f4 0f a4 be 2b 29 cc bf
       -0.07357614 -1.3024819 -0.3204342 -1.5950063
000370 68 1e c0 bd be 73 fd bd 2c e8 08 be 54 61 69 3d
       -0.093807995 -0.12375592 -0.13369817 0.056977585
000380 d9 60 25 3e b8 b0 9f 3c b3 92 78 3e 04 3d ef 3c
       0.16150226 0.019493446 0.24274711 0.0292039
000390 cb 38 a9 3d d8 cd 03 bf 9c 92 d3 bd 0d 7a 0a 3f
       0.082627855 -0.5148597 -0.10330698 0.54092485
0003a0 c4 f0 9b 3e 66 43 fe be c5 2c ca bb f4 73 9d 3d
       0.30457127 -0.49660796 -0.0061698877 0.07688132
0003b0 6a f7 85 3d 90 b7 07 3c 5a 60 c7 3d 48 ee 64 c0
       0.06541331 0.008283511 0.097351745 -3.5770435
0003c0 64 17 61 bd 00 56 4f bc 67 fb c2 3e 92 27 ff 3d
       -0.054953948 -0.012654781 0.3808243 0.12458719
0003d0 e5 c9 c7 c0 9b 19 89 bf 11 8d 5f be 48 35 39 3f
       -6.2433953 -1.0710939 -0.21831156 0.72346926
0003e0 80 67 91 3a 99 e6 4a bf d2 0a e8 3d 69 95 54 3d
       0.0011093467 -0.79258114 0.11330189 0.0519003
0003f0 fc fd 1f bd 45 fc 85 3e 15 14 2b c0 8f 3c 4f ba
       -0.039060578 0.2616903 -2.6731007 -0.0007905447

fc2.bias f4 [256]
000000 54 26 66 bd f1 c2 38 3e e8 e6 b6 3e 1c 2c 8b 3f
       -0.056188896 0.18043114 0.35723042 1.0872836
000010 43 4c d3 bd 99 08 cc bd e5 0f 5c bd 21 0c 1d be
       -0.1031728 -0.099625774 -0.053726096 -0.15336658
000020 14 54 5e bf 63 42 b8 3d 8f 4a d8 bd 34 2b 6a ba
       -0.86847043 0.08997037 -0.10561096 -0.00089328294
000030 70 81 36 bd 52 d2 af bd d6 06 71 bd 80 d1 a6 be
       -0.044557035 -0.08585037 -0.05884441 -0.3258171
000040 3c 7f 43 3e dc 6f 02 be 35 18 03 be 1a 20 3d be
       0.19091505 -0.12737983 -0.12802203 -0.18469277
000050 27 32 be bd f2 e3 27 bf 07 d1 ae bd 45 d5 73 bd
       -0.092869096 -0.6558219 -0.085359626 -0.05952956
000060 c3 b2 8e bc ad 0b b5 bd 56 82 73 bd db b6 28 be
       -0.017419225 -0.088401176 -0.05945047 -0.16476004
000070 ba 1d de bd 00 a5 c6 bd 5d 62 1d be dd 2e b2 3e
       -0.10845514 -0.0969944 -0.15369554 0.3480138
000080 5b c5 d0 bd 82 ff 60 be 7f 55 2d 3f 0d 72 3b be
       -0.101938926 -0.21972468 0.6770858 -0.18305226
000090 9e fe 20 3f 83 48 97 bd 49 bb f7 3d 44 f2 a0 be
       0.62888515 -0.073868774 0.12096269 -0.31434834
0000a0 c6 5e e2 3e 3c 3d ae 3e 77 f8 07 be 57 3b 9f 3c
       0.4421293 0.34031093 -0.13278376 0.019437475
0000b0 ca ca 03 be c6 e1 75 3f f7 3d 19 bd aa 5d bb bd
       -0.12870327 0.9604763 -0.03741261 -0.091487244
0000c0 4c 56 87 be d9 c5 98 3d 0f 08 d9 3c 55 27 23 be
       -0.26433027 0.074596114 0.0264931 -0.15932973
0000d0 1f 94 0f 3f 07 03 ba bd 21 41 1d 3f 71 5d cb 3e
       0.5608539 -0.09082609 0.61427504 0.39719728
0000e0 db 73 1c bd 46 eb d0 bd 48 ea 59 bf 45 c6 b3 3f
       -0.038196426 -0.10201125 -0.8512311 1.4044882
0000f0 ed d1 82 3f e8 28 66 3e 35 b0 60 bd 3f c1 e8 bd
       1.0220314 0.22476542 -0.054855544 -0.11364984
000100 c0 66 3a 3f 76 9c 9e bd 55 21 fd bd b3 61 e6 be
       0.72813034 -0.07744686 -0.12359873 -0.44996414
000110 a6 7f 0d 3f bc c8 08 be dc b8 28 be 8d 2a 11 be
       0.552729 -0.13357824 -0.16476768 -0.14176388
000120 94 9f 31 3e 43 fe be 3d 26 57 29 be a3 36 9e bc
       0.1734603 0.0932584 -0.1653715 -0.019313162
000130 f9 0a 35 be 6d b6 29 3f ad 52 18 3b ea 83 f5 be
       -0.17679967 0.66293985 0.0023242638 -0.47952205
000140 ad 4e 3e be fe 3a 08 bf ad 3c bf bd 0e 88 3c 3f
       -0.185847 -0.53215015 -0.09337745 0.736451
000150 bc 02 37 be a2 24 7a 3e 6d 71 7c 3f bf 6f 2d 3f
       -0.17872137 0.24428037 0.98610574 0.67748636
000160 ff 0d 18 be 5d ad 6c be 4e b2 28 bf bd 04 ff bd
       -0.14849089 -0.23113008 -0.6589707 -0.12452076
000170 75 fc 9c 3e be 9c 4f bf 65 d6 4b be 86 0a 1f bf
       0.3066136 -0.81098545 -0.19906004 -0.6212543
000180 bc b7 6d be f9 c7 ce bd 7b 11 4b bd 15 23 01 be
       -0.2321462 -0.100967355 -0.049577218 -0.12611039
000190 86 64 ff bd bf 1c 38 3f fc e9 59 bd cc e8 11 be
       -0.12470345 0.71918863 -0.05320166 -0.14248961
0001a0 a4 f4 1a be 27 20 36 3f 5d c6 80 3f 11 55 9d bd
       -0.15132385 0.7114281 1.0060536 -0.07682241
0001b0 ff 09 af bd 1c 3f 18 be 96 0d d0 bd 7e a4 52 3f
       -0.085468285 -0.14867824 -0.10158841 0.82282245
0001c0 f2 a8 74 bd 8a 3b ec bd ce 52 1d 3f e6 85 fd bd
       -0.05973143 -0.11534794 0.61454475 -0.12379055
0001d0 0c 78 48 3e 67 0d 1b be ba 98 f4 bd 96 73 37 bc
       0.19577044 -0.15141831 -0.11943193 -0.011196991
0001e0 a9 60 de 3d 14 6f 1c be 4a ee 94 3d e6 ce 06 be
       0.1085828 -0.15276748 0.072720125 -0.13164863
0001f0 7e 98 c9 3d af 36 ec bd f2 78 9f bd 58 68 b5 3e
       0.09843539 -0.115338676 -0.0778674 0.3543117
000200 70 d3 ab bd 72 1d 09 be 92 69 53 3f ea 78 1c bf
       -0.08389938 -0.13390139 0.8258296 -0.61122
000210 a3 ca c0 bd 23 d6 e2 bd 24 cc 1c 3f ba 32 2d 3f
       -0.0941365 -0.110759996 0.61248994 0.6765553
000220 aa 11 9d bd cb a4 a5 3f 3d 38 e6 3d c8 4e 13 3f
       -0.07669385 1.2940916 0.11241195 0.57542086
000230 66 a9 e4 bd 9e ca fb bc 69 27 32 be c8 73 90 bd
       -0.11165123 -0.030736264 -0.17397846 -0.070533335
000240 2d a3 ef bd 3a 2b 55 be 16 56 91 3e 21 d2 c7 bd
       -0.11701045 -0.20817271 0.2838599 -0.09756876
000250 72 2c 57 3e 75 00 bc be 80 e9 c9 bd 6e ae 6a 3f
       0.21013048 -0.367191 -0.0985899 0.9167241
000260 7d 21 9c bd e8 e9 b8 bd 15 55 cd 3e 0c 06 fc 3e
       -0.07623575 -0.09028989 0.40103975 0.49223363
000270 3b a2 cf bd 5c b4 9f bd 23 11 d5 3e 96 ee 46 be
       -0.10138365 -0.07798073 0.41614637 -0.19426951
000280 f7 e4 83 be a2 bb 9f 3f 3c 96 f6 3e 8d d3 94 3c
       -0.25760624 1.2479136 0.48161495 0.018167282
000290 16 0c 51 bf f6 a7 c8 bd d5 78 94 bd bf 14 78 bd
       -0.81659067 -0.09797661 -0.072496094 -0.06056666
0002a0 8f 77 3a 3f 1b b2 00 be c4 ff 11 be 29 23 a7 be
       0.7283868 -0.12567942 -0.14257723 -0.32644013
0002b0 6a 64 9b 3f 18 69 34 be 94 92 02 be 79 57 3c 3f
       1.2140019 -0.17618215 -0.12751228 0.7357097
0002c0 7a 5d ed bd 6b 0a 10 be a4 4b ae bd 4b 3f 2a 3f
       -0.11590095 -0.14066474 -0.08510521 0.6650283
0002d0 9a 2b 26 be 56 00 86 3c 6f ce e6 bc b3 3a e1 bd
       -0.1622757 0.016357582 -0.028174607 -0.10997524
0002e0 89 24 1d be d1 80 02 be 7b b5 19 be f2 e5 e6 bd
       -0.15345968 -0.12744452 -0.15010636 -0.11274327
0002f0 80 8c 06 3d 85 6a b1 bd 0c fc e1 3e 2c 87 06 bf
       0.032848835 -0.08662895 0.4413761 -0.52550006
000300 b0 44 83 bd 8f ca 0a 3e 87 71 a3 bf d2 cc 00 3c
       -0.064095855 0.13553832 -1.2769021 0.007861333
000310 74 1a 3b be 1e ac 69 be 96 27 bd bd 15 39 d9 bd
       -0.1827181 -0.22819564 -0.09236066 -0.10606591
000320 5f e3 1b be 0d 8e 3a be a9 b8 44 bf 68 9f e1 bd
       -0.15223454 -0.1821825 -0.7684427 -0.110167325
000330 98 0f cd be ac 91 89 be 79 a3 82 bd cf a1 a7 be
       -0.4005096 -0.2686895 -0.06378836 -0.32740638
000340 a2 d9 ef bd a8 7b d9 be ca 68 4d be 73 97 e3 bd
       -0.11711432 -0.42477155 -0.20059505 -0.11112871
000350 53 41 b3 3e 19 80 02 be f8 0d cd bb ea b8 be bd
       0.35010776 -0.12744178 -0.0062577687 -0.09312613
000360 3b 43 a9 bd 59 c5 ee 3e 21 fa 96 3f 42 84 3a bc
       -0.08264776 0.4663494 1.1795083 -0.011384072
000370 c1 aa 74 bc 38 e5 ea bc 33 32 ab 3f 1f db b2 3d
       -0.014933289 -0.028673753 1.3374695 0.087332
000380 24 dd 1c be 06 d5 6a bd c3 78 1b bf 58 9d 1c bd
       -0.15318733 -0.05733206 -0.6073114 -0.038235992
000390 be 2e 35 be 92 d6 2e 3f 29 52 ad bd 80 f4 26 3c
       -0.17693612 0.6829616 -0.084629364 0.010190129
0003a0 e4 05 64 bd 10 28 06 be 9c d1 6e bd c4 22 85 3e
       -0.05566968 -0.1310122 -0.058305368 0.26003087
0003b0 f2 62 7d 3f 68 47 78 bf ec 1f c5 bd 3f 9a ab bc
       0.98979104 -0.9698396 -0.09625229 -0.020947574
0003c0 75 95 84 bd 4a b6 42 3f c2 2e 11 3f 27 6f 0f be
       -0.06473819 0.760594 0.5671197 -0.14007245
0003d0 59 5e 4c bd ec 45 0a bf 23 c0 2b bf 2c ec 28 3f
       -0.049894664 -0.5401294 -0.6709005 0.6598537
0003e0 71 62 0c be f0 4e cb bd 8a 6f fa 3e c0 58 11 be
       -0.13709427 -0.099271655 0.48913223 -0.14194012
0003f0 65 4b 2e bd 7c 5e 60 bf a2 46 c6 bd ad ff 89 3f
       -0.04255237 -0.8764417 -0.09681441 1.0781151

fc3.weight f4 [512, 256]
000000 b2 55 5e 3d c4 5b af bb 69 be 62 bc d8 27 41 bd
       0.054280944 -0.0053515155 -0.013839343 -0.04715714
000010 90 b4 48 bd e2 aa 51 bd 92 56 68 bd f0 3f 82 3b
       -0.049000323 -0.051188357 -0.056723185 0.003974907
000020 10 16 98 3c 76 24 dc 3c 5b 7d 74 bc 98 14 5f 3d
       0.018565208 0.026872855 -0.014922465 0.054463
000030 08 32 ed bc f4 d4 55 3d 28 f7 30 3c 71 4a 0c bd
       -0.02895452 0.05220504 0.010801114 -0.03425068
000040 57 43 c3 bd 42 ed 62 3d 80 65 4b 3c e8 88 52 bd
       -0.095343284 0.055402048 0.012414336 -0.051400095
000050 46 75 13 3d f0 d6 65 3c fc d9 73 bd e8 43 5f bc
       0.036000513 0.014028296 -0.059534058 -0.01362703
000060 f6 1f 55 3d b8 70 0f bc e0 44 c6 3b 52 99 6e 3d
       0.052032433 -0.008754902 0.006050691 0.058251686
000070 70 c1 b5 bc 74 e7 4b bd 20 7e 74 bb 5f d9 b4 3c
       -0.022186965 -0.049781278 -0.0037306622 0.022076307
000080 ec 66 9a bc 3b 50 ad bd 47 a1 c3 3a e0 51 b1 bd
       -0.018847905 -0.08462568 0.0014925384 -0.086581945
000090 42 27 d4 bb 8e aa 77 3d 60 f1 a5 bb 20 4c ed bc
       -0.0064744065 0.060465388 -0.0050641745 -0.028966963
0000a0 6e 0f a8 bd 76 75 81 3c e0 6f f9 3c 0a 6e 22 3d
       -0.08206068 0.01580308 0.030448854 0.039655723
0000b0 60 52 7f 3d d1 6e eb bc a0 a2 5d bb 04 12 49 3d
       0.06233442 -0.028739365 -0.0033818856 0.049089447
0000c0 3b 68 12 3d c8 2f 39 bd c3 50 6c bb 2c 3c 86 bc
       0.035743933 -0.045211583 -0.003605888 -0.016386114
0000d0 9f 56 f1 3c a4 e1 47 bd af 08 81 bd 60 99 d8 3c
       0.02946025 -0.048799172 -0.063004844 0.026440322
0000e0 54 09 66 3d 1c 7d d1 bc b6 ef 95 bd 04 46 59 bd
       0.05616124 -0.025572352 -0.07321112 -0.053045288
0000f0 fe 4d e0 bd 11 24 de bc 00 a0 86 3a 50 85 c5 bb
       -0.10952376 -0.027116807 0.0010271072 -0.006027855
000100 c8 14 4e bd 50 f0 8d 3c f4 24 6c 3d bf 36 91 3c
       -0.050312787 0.017326504 0.05765243 0.0177263
000110 48 2b f3 bc b0 49 36 3c 8a e3 07 3d 30 4b d0 3b
       -0.029683724 0.011125967 0.033175983 0.0063566193
000120 18 f7 4d 3c 10 05 e5 bb b0 24 a5 3b fc 7c 34 bd
       0.012571119 -0.006989129 0.005039774 -0.044064507
000130 58 ee 5e bc 3e ee b1 bd 80 16 e2 3c 50 fa bc bc
       -0.01360663 -0.08688019 0.02759862 -0.023068577
000140 00 45 6e bb 08 90 18 3c aa 8c 17 bd 92 d3 20 bd
       -0.0036357045 0.0093116835 -0.036999382 -0.03926427
000150 4d 04 8d bd ea aa 96 bd 7b 8e 4c bd c9 d4 6f bd
       -0.06885586 -0.07356818 -0.049940567 -0.058552537
000160 ec e9 3b bd b8 1d 28 3c b2 10 95 bd bc 25 62 bd
       -0.045877382 0.010260992 -0.07278575 -0.055211768
000170 94 30 51 bd a2 9c dd 3c 3c 15 9b 3c de 2e b3 bd
       -0.05107172 0.027052227 0.018931024 -0.087491736
000180 b8 42 8c 3c a0 c5 1f 3b 0c 36 49 bd 56 3b 3b 3d
       0.017121658 0.0024379268 -0.04912381 0.045710884
000190 57 18 2a bd fc 49 ce bb 14 0c 90 bd 10 94 0e bc
       -0.04152712 -0.0062954407 -0.07033554 -0.008702293
0001a0 78 6f ef bc 75 e3 8a bd 34 e9 92 bd 24 56 cb bc
       -0.029227957 -0.06781665 -0.07173386 -0.024821348
0001b0 50 2e 55 3d 46 11 5b 3d 80 a3 83 3b fa 28 cb 3c
       0.05204612 0.05348327 0.0040172935 0.024799813
0001c0 28 56 dc 3c 1e db 6a bd 74 d2 06 3d a4 54 1c 3d
       0.026896551 -0.057337873 0.032915547 0.038166657
0001d0 f6 6f 38 3b 7e 52 f0 3c e4 2a 6b 3d e0 1d 7c bd
       0.0028142906 0.02933621 0.05741395 -0.06155193
0001e0 fb 20 1a 3b de 12 31 bd 5c 09 03 3d 90 06 3e bd
       0.0023518193 -0.043230884 0.031991348 -0.046392977
0001f0 c0 48 69 3b 94 92 50 3d 00 df 2b 3d 3f 22 9a bd
       0.003559634 0.050921038 0.041960716 -0.07526063
000200 60 3b b3 bc 76 cf 32 3d 30 40 64 3d 29 b5 04 3d
       -0.021878898 0.04365488 0.055725276 0.03239933
000210 e0 e0 63 3b f2 bf 1b bd 81 52 0a bd 9c 49 d4 bc
       0.0034771487 -0.03802485 -0.033770088 -0.025914006
000220 6c 98 ab bc 20 8a 28 bc b4 32 ca bc 1f 45 38 bd
       -0.020946704 -0.010286838 -0.02468238 -0.044987794
000230 4b a0 b9 3b 18 1d a8 3c e9 a2 f3 3b c0 a6 ea ba
       0.0056648604 0.020521685 0.007435192 -0.0017902479
000240 c8 81 7e bd 44 4d 5c bd e7 8b dc bc 90 d5 a2 bb
       -0.062135488 -0.053784624 -0.02692218 -0.0049693063
000250 6e 63 37 bd ea 0a 22 bd dc bb 74 3d 30 5c d8 bb
       -0.044772558 -0.03956119 0.05974947 -0.0066027865
000260 6e 99 4f 3d ea a6 75 3d f9 f0 a4 3c 89 a7 29 3c
       0.05068343 0.059973635 0.020134436 0.010354885
000270 e0 b8 86 bb 40 96 66 3c 76 b7 35 bd 5b 04 e9 3b
       -0.0041113943 0.014073908 -0.044364415 0.007111115
000280 9b 8e 02 bc fd 76 9d 3c 28 bd eb bc 81 66 22 bd
       -0.00796857 0.019221777 -0.02877672 -0.039648537
000290 a9 ad 30 3a c4 1d cd bc a8 c6 ef bc f5 d7 c0 3c
       0.00067397446 -0.025038607 -0.029269531 0.023540476
0002a0 96 81 0e 3d c0 9e 68 3c a0 4b 0f 3d 2c ec 40 bd
       0.03479155 0.014198005 0.03498423 -0.04710023
0002b0 af 72 ad bd fc 4e 56 bd d7 22 dd 3b 83 35 6a bd
       -0.0846914 -0.05232142 0.006748538 -0.05717994
0002c0 ee f5 20 3d 84 9d 57 bd 38 93 7e bc aa 6c 5c bc
       0.039297037 -0.052640453 -0.015538029 -0.013453642
0002d0 00 11 b9 39 a0 3a 42 bb 84 ed fb bc 08 a0 9a bc
       0.00035298616 -0.0029636994 -0.030752905 -0.018875137
0002e0 48 48 43 bd 8a 97 3c bd e6 2d 4f 3d 4e cd 3c 3d
       -0.047676355 -0.046042956 0.05058088 0.04609423
0002f0 08 26 7b 3c c4 7f 0a bd cc e8 9e bd a8 59 d0 3c
       0.015328892 -0.033813253 -0.07759246 0.025433376
000300 ec e9 94 3c c5 5a 11 bd a6 8a 3f bd 96 5d 0a 3d
       0.018177949 -0.035486955 -0.046763085 0.033780657
000310 82 14 7e 3d 83 23 b2 bc 20 f3 9b 3c e4 dd ef bc
       0.062031277 -0.021745449 0.01903683 -0.02928061
000320 e8 60 01 3c be 59 1c bd f0 d2 e0 bb 60 52 57 bd
       0.007896639 -0.038171522 -0.006861083 -0.052568793
000330 74 be eb bc b4 59 de bc 72 28 68 3d 60 38 f2 3c
       -0.028777339 -0.027142383 0.056679197 0.029567897
000340 95 80 6f bd 03 8d dd 3c 7d e3 f2 bc 48 81 39 3d
       -0.058472235 0.027044779 -0.02964949 0.045289308
000350 40 3f ff bb fa 1c 4b bd 89 89 74 bd 5c 3a 6e bd
       -0.0077895224 -0.04958818 -0.059701476 -0.058161125
000360 30 45 48 bc 00 06 fd 39 b5 42 7e bc 1c b1 f1 3c
       -0.012223527 0.0004826039 -0.015518834 0.029503398
000370 76 01 42 3d a0 a0 02 bb 3e 22 0e bb 50 35 a7 bc
       0.047364675 -0.0019932166 -0.002168789 -0.020411164
000380 00 27 76 3a 78 9f 41 3c aa a0 c5 3c 48 29 12 bc
       0.0009389967 0.0118178055 0.024124462 -0.008920975
000390 d4 ae 73 3d 81 61 75 bb e2 fb 18 bd 6e c4 7e 3d
       0.0594929 -0.003744215 -0.03734959 0.06219905
0003a0 80 d2 e3 3b 8a b4 2c bd 78 cd 71 3c ba d6 c8 3c
       0.006952584 -0.042164363 0.01475846 0.024516452
0003b0 b0 02 cd 3c 8c 5b 8e 3c 70 f8 b0 bd a8 ec 67 bd
       0.025025696 0.017377637 -0.08641136 -0.056622177
0003c0 1c 42 8c bc a3 8d 9d bd 20 83 2d bb c8 82 29 3d
       -0.017121367 -0.07693031 -0.0026475862 0.04138449
0003d0 00 68 db 3a 10 ad 54 bc 00 fe 39 bc 58 7a 7a bc
       0.0016739368 -0.012980714 -0.011352062 -0.015287958
0003e0 30 cc ba 3b fe 4e 24 3d 9f 7a 8d bc 80 f5 d8 3a
       0.0057006106 0.040114395 -0.017270384 0.0016552657
0003f0 bc 04 4d bd c5 bf 98 bd 14 32 2f bd 4e 7c 8c bd
       -0.050053343 -0.07458452 -0.042772368 -0.06859647

fc3.bias f4 [512]
000000 90 fb b4 bd af 92 0a be 7f 8e a4 bd 54 5c d7 bd
       -0.08837044 -0.13532518 -0.080349915 -0.10515657
000010 9c 36 80 be a6 9a cc bd a7 a2 bc bd 8b af c7 bd
       -0.25041664 -0.09990434 -0.09210711 -0.09750279
000020 c6 ad 00 be 3a f2 23 3f 32 d9 27 3c 78 64 0e 3f
       -0.1256629 0.64041483 0.0102446545 0.55622053
000030 97 bb b1 bd 40 54 cf bd ae 74 a9 bd 68 30 15 3f
       -0.08678358 -0.10123491 -0.08274208 0.5827699
000040 f8 03 96 bd b9 b5 cb be d5 49 00 3e d6 44 bc bd
       -0.07324976 -0.3978708 0.12528165 -0.09192817
000050 bc ce b4 3e a7 fb 78 40 c2 68 83 3d 40 0e 09 be
       0.35313976 3.8903596 0.06416465 -0.13384342
000060 7e 83 b0 bd 14 b3 0d be 7e 45 dd bd 0f d1 bc be
       -0.0861883 -0.13837844 -0.1080427 -0.3687825
000070 3e 1d b3 bd 4d bf d7 bc af 71 13 be 4f 55 c3 3f
       -0.08745812 -0.026336337 -0.14398836 1.5260409
000080 ea 0b c0 bd 5f f9 29 3f 9f 58 00 be 4a dd be be
       -0.093772724 0.66396135 -0.12533806 -0.37278205
000090 45 d0 5b 3e 05 01 9d bd e5 c3 80 3f 30 3b d4 bd
       0.21466167 -0.0766621 1.0059782 -0.103628516
0000a0 cc 3f 3b bc 7e b6 92 bd ad fc ab bd 49 56 51 3e
       -0.011428785 -0.07163714 -0.083978035 0.20443071
0000b0 7c 28 8a be 60 95 79 3e 13 8d d0 bd 24 f5 99 3e
       -0.26984012 0.24373388 -0.10183158 0.3006984
0000c0 11 45 ed bd 96 90 6b bd 17 14 42 be ba b3 eb bd
       -0.11585439 -0.057510935 -0.18952976 -0.115088895
0000d0 75 a3 8d bc 8b 59 4e 3e 9b a6 a8 bd 9b 3f 8b bd
       -0.017289856 0.20151345 -0.082349025 -0.06799241
0000e0 f3 af 3a 40 69 73 00 bf 35 12 1c bd 45 db 65 40
       2.916989 -0.501761 -0.0381033 3.5915082
0000f0 76 aa c5 3f 27 7c bd bd 61 3b 35 3e be e2 93 bf
       1.5442646 -0.09252196 0.17698433 -1.1553571
000100 ac 8b 52 be e9 ac 50 bc ca 74 a7 bf b3 c9 4f bd
       -0.20561093 -0.0127365375 -1.3082516 -0.050729465
000110 c0 44 e1 bd 03 46 30 be 4e d8 c8 bc e7 9f 03 be
       -0.10999441 -0.17214207 -0.024517205 -0.12853967
000120 b7 e7 f7 bd 5b 13 81 3d 26 99 f2 bd b7 06 3b bd
       -0.12104743 0.0630252 -0.11845617 -0.0456607
000130 79 e2 f5 3d ec 6c e4 3b 59 8d 3c be ec 16 9a 3f
       0.12006087 0.0069709923 -0.18413295 1.2038245
000140 3b 4a 3f be 52 51 a9 bd fa 63 a9 3e 08 49 e8 bc
       -0.1868066 -0.08267464 0.3308409 -0.028355137
000150 82 5c b6 3e 50 6e 3d bd 5d 5e ca bd 82 3f aa be
       0.35617453 -0.04624778 -0.098812796 -0.33251578
000160 78 32 60 bf 20 0e 21 be f7 d8 b9 3f c9 54 b8 3f
       -0.8757701 -0.15728045 1.4519337 1.4400874
000170 58 50 11 3f b3 a9 1b 3e 82 96 60 3e 14 5f a9 bd
       0.5676322 0.15201454 0.21932414 -0.08270088
000180 53 dc e7 3e e2 cd 8e bf 74 a9 03 be 19 45 01 be
       0.45285282 -1.115658 -0.1285761 -0.12624015
000190 20 7b 9c be c0 59 ad 3c 1d f6 7b bc f6 33 45 be
       -0.30562687 0.02116096 -0.015378502 -0.19258103
0001a0 b0 bb dc bd 15 b8 0e 40 4f 62 14 be b9 3c 43 bf
       -0.10777986 2.2299855 -0.14490627 -0.7626453
0001b0 61 11 8f bd 25 52 97 bd d0 01 83 bd ff 5c f7 bd
       -0.06985737 -0.07388715 -0.0639683 -0.120782845
0001c0 fb a5 ab bd 55 a7 48 be cb 6c 4d be 48 aa fc bd
       -0.08381268 -0.19595082 -0.20061032 -0.12337166
0001d0 01 56 39 be 28 0a 62 bf d6 af 1a bd 05 1a ea bd
       -0.18099214 -0.8829675 -0.037765346 -0.11430744
0001e0 9f 47 26 be d2 77 8a bf 84 d9 f7 bd e1 71 ac bd
       -0.16238259 -1.0817816 -0.12102035 -0.08420158
0001f0 1f a5 ec 3f 8e d5 23 3f fc c0 bc bd bf 48 c2 bd
       1.8487891 0.63997734 -0.09216496 -0.094865315
000200 09 a2 67 bd 7f 7e 67 3f 68 cc b6 bc 32 31 35 3f
       -0.056551013 0.9042739 -0.022314265 0.7077819
000210 72 32 60 3f e4 fc e9 bc 65 47 e1 3e 32 84 0c 3f
       0.87576973 -0.02856297 0.43999782 0.54889214
000220 9e 77 66 bf ff 0c 15 40 41 8d ec bc 82 27 1c 40
       -0.9002627 2.3289182 -0.028875949 2.4399114
000230 c2 cc 01 3f 18 78 8f bd e6 0c 74 3f 3f 21 d1 be
       0.5070306 -0.07005328 0.9533218 -0.40845677
000240 36 79 76 be 48 e3 e1 3d bf a6 97 bd 82 22 a9 bb
       -0.24069676 0.110296786 -0.07404851 -0.0051615844
000250 41 99 a2 3f ce e8 33 bf e8 7f 69 3e 86 58 b4 bd
       1.2703019 -0.70277107 0.22802699 -0.08805947
000260 a0 e0 cf bd 67 e7 0a be d0 4e a7 bd cf a9 95 3f
       -0.10150266 -0.13564835 -0.08169329 1.1692446
000270 3b d2 5e bd 8c 78 d4 bd 35 ee fa bd 2f 99 d5 bd
       -0.05439971 -0.10374555 -0.12252466 -0.10429608
000280 60 ed eb bd ec b7 e8 3f 52 da a6 bd 29 73 7a bd
       -0.11519885 1.8181129 -0.0814711 -0.06114498
000290 16 38 b2 bc d7 26 2c bd 65 24 d2 3e 70 5b 2d bd
       -0.02175526 -0.042029228 0.41043392 -0.04232353
0002a0 68 ef 14 be c1 ad 7a 3f a7 c4 aa 3f 7c 16 87 3f
       -0.14544451 0.9792138 1.3341264 1.0553737
0002b0 99 d7 89 bd 1a 11 0f bc e8 cb f8 bd a4 80 0a bd
       -0.06730575 -0.008732105 -0.12148267 -0.033814088
0002c0 24 95 05 3d 33 a9 3b bf 32 a9 86 3f 90 16 a4 bf
       0.032612935 -0.7330505 1.0520384 -1.2819386
0002d0 ee e3 02 3f ad 0f f6 bd f6 d0 88 be 5d ef 4d be
       0.51129043 -0.12014709 -0.26721925 -0.20110841
0002e0 fc 5c 35 be 7b c2 42 bf ad 85 0b be f3 2b e6 bd
       -0.17711252 -0.76078004 -0.13625212 -0.112388514
0002f0 9b b1 96 bd e1 cd 28 3f 80 2f b9 bd 38 6c 10 3f
       -0.07358094 0.65939146 -0.09042263 0.5641513
000300 97 ec c5 bf d2 09 5a bf 80 a7 a4 bd 98 f5 3a 3e
       -1.5462826 -0.85171235 -0.080397606 0.18257749
000310 bb 8b 93 bd 02 77 bc 3f 1a d6 46 bd c3 42 9d be
       -0.07204386 1.4723818 -0.048544027 -0.30714998
000320 43 1e 75 3f 5f 3b 12 be 73 aa e8 bc 04 61 04 be
       0.957493 -0.14280461 -0.028401589 -0.12927634
000330 08 e5 d4 bd 3a bb c2 bc 58 7c 80 3d 2e bd 67 be
       -0.10395247 -0.023770917 0.06273717 -0.2263076
000340 f9 cf 6e bf 46 d6 9d bd 41 d5 01 be 5b 3d d2 bd
       -0.9328609 -0.07706885 -0.12679006 -0.10265609
000350 08 7b 74 be b6 7c 80 bd f2 37 8f bd 2b 1e 26 bf
       -0.23875058 -0.06273787 -0.069930926 -0.6488978
000360 54 85 10 be cb 08 77 bf a4 15 0c be ad f5 37 3e
       -0.1411336 -0.9649779 -0.1368013 0.17964812
000370 e1 f2 0f 3f de a0 54 40 e1 4a bf bd d0 89 ac be
       0.5622998 3.3223186 -0.09340454 -0.33698893
000380 16 8f 59 3f 41 89 80 bd 7f e6 e3 bd 37 8a d4 bd
       0.84983957 -0.06276179 -0.11127948 -0.10377925
000390 85 ce a4 bd d6 d5 e9 bf d4 5b 66 bd ee 3c f0 bd
       -0.08047203 -1.8268383 -0.056239918 -0.117303714
0003a0 c6 e0 90 bc 22 f3 18 be b1 ac f2 3d 96 4e 36 3f
       -0.017685305 -0.14936498 0.118493445 0.7121366
0003b0 db 15 a8 3f b4 e4 a2 be 86 d6 6e 3f 5d 03 1c 3d
       1.313167 -0.31815112 0.93296087 0.038089145
0003c0 46 81 21 be cd 63 35 3f 58 eb 00 bd 99 f6 d8 bd
       -0.1577197 0.7085541 -0.03147444 -0.1059391
0003d0 3f b3 23 3f 1c 29 93 3f 49 a3 0e be fa 93 32 3f
       0.6394538 1.149692 -0.13929476 0.69757044
0003e0 0e 78 58 bd b2 d1 89 bf fc 60 df bd 74 04 6f bd
       -0.052848868 -1.0767119 -0.1090717 -0.058353856
0003f0 eb a1 ef bd bf 3d bf bd 2f 70 24 be 91 49 b2 be
       -0.11700805 -0.09337949 -0.1605842 -0.34821752

fc4.weight f4 [64, 512]
000000 b5 62 08 bd bc ce 22 3c f0 aa 07 3b 7d 18 00 3d
       -0.03329726 0.009936985 0.0020701252 0.031273354
000010 94 0e 0c 3c 88 96 7f bc ae 82 20 bd 30 3b 0e bd
       0.008548398 -0.015599854 -0.039187126 -0.034724414
000020 80 0d 30 3b ee fd 86 bc 60 10 0d 3b c3 15 6e 3b
       0.0026863515 -0.016478505 0.0021524653 0.003632889
000030 7e f0 f0 3c 40 71 3a bb 9e 4f cc 3c af 06 9f bc
       0.02941155 -0.002844885 0.024940308 -0.019412367
000040 c2 65 6f bc 3f 49 4c bb 33 ab 24 bc 5c 31 cb bc
       -0.014611663 -0.0031171588 -0.010050583 -0.02480381
000050 00 6c 41 bd a3 73 12 bd 01 69 30 bd 3c 5e ca bc
       -0.047222137 -0.03575481 -0.04306889 -0.024703138
000060 10 11 40 3c e8 a3 2b bd f9 1c b6 bc ec 71 0e bd
       0.011722818 -0.04190436 -0.022230612 -0.034776613
000070 ee ff a5 3c 82 01 c4 3c 04 1e 15 3c b1 c4 2d 3c
       0.020263638 0.0239265 0.009101395 0.010605977
000080 c6 e3 f2 bc a8 50 39 bd c2 97 ed bc da d4 41 3c
       -0.029649626 -0.045242935 -0.029003028 0.011830533
000090 b5 5c b0 bc c4 70 17 bc 52 49 71 bd 04 9f 35 3c
       -0.021528581 -0.009243194 -0.058907814 0.011085276
0000a0 c4 be 13 bd d0 7c 66 bb 1d 42 ea b9 00 d8 5f bb
       -0.0360706 -0.003516961 -0.00044681216 -0.0034155846
0000b0 59 10 6d bd 38 a9 b0 ba 10 95 2e 3b 50 1c 6c ba
       -0.05787692 -0.0013478165 0.002663914 -0.00090069044
0000c0 9f e6 0e 3d ef cc 2e 3c 0b 6c c6 bc 9c 3f 1d 3c
       0.034887906 0.010668977 -0.02422144 0.009597685
0000d0 11 cc 05 bd 61 32 19 bd 30 c7 4e 3c 46 4e a4 3c
       -0.032665316 -0.03740156 0.012620732 0.020056855
0000e0 9c 8d 75 bd 51 16 48 3b 80 e0 d3 39 30 84 5b bd
       -0.059949502 0.003053088 0.00040412322 -0.05359286
0000f0 a6 8f 89 bd 9a 76 be 3c c3 7c 20 3d 14 8f 1d bb
       -0.06716852 0.023249913 0.039181482 -0.002404158
000100 00 bf 31 3a 8b 0f dd bc a3 20 dd bc d0 08 69 bb
       0.00067804754 -0.02698495 -0.026993101 -0.0035558231
000110 45 aa 0f bd d2 94 98 3c 1c 17 5c bc 53 d8 13 3d
       -0.03507449 0.01862565 -0.013433244 0.036094975
000120 2c 12 4d 3c 36 19 22 bd f1 0c 8a bc b1 19 8a bd
       0.01251654 -0.039574824 -0.016851874 -0.067431815
000130 28 73 d9 bc b8 1d 00 3c de 63 e0 3c cf 46 f4 ba
       -0.026544169 0.0078195855 0.02739137 -0.0018636825
000140 b5 6a e1 bc 2a e8 7a bc e7 c0 e1 bc 91 f4 2e bc
       -0.027516702 -0.015314141 -0.027557803 -0.010678426
000150 a8 86 50 bd 7c 71 00 bb b8 d3 cb bc d6 4c 0f bd
       -0.05090967 -0.0019598892 -0.024881229 -0.034985386
000160 19 3c 11 3b e7 e5 14 3d 18 45 c9 bc ad ea 94 bb
       0.0022161065 0.036352064 -0.02456908 -0.004544577
000170 64 70 4a bd 39 e9 3f 3c a8 cd 23 3c b0 b5 56 bc
       -0.04942359 0.011713319 0.009997763 -0.013104841
000180 be 89 e9 bc 23 0a ec bc da 6e 0c bd 8b 3e 0b 3d
       -0.028508063 -0.028813427 -0.034285404 0.033995192
000190 2c 9e cf 3c 63 47 a0 bc 8a 8c af 3c a8 ca 09 bd
       0.025343977 -0.01956529 0.021429319 -0.033640534
0001a0 b7 22 14 bd ef b2 7b 3c 2a c3 2d bd 66 49 52 bd
       -0.03616592 0.015362485 -0.04242245 -0.05133953
0001b0 b7 dd 19 bd f3 04 24 bd 6b 54 82 3b 0c e9 01 bc
       -0.03756496 -0.040043782 0.0039773486 -0.007929098
0001c0 c3 89 31 bd be f5 6b bc 4c 28 3e 3c e4 e2 13 3c
       -0.04334427 -0.014401851 0.011606287 0.009026263
0001d0 c1 ae 92 bd df ea 31 3d 7b 2a 16 3d 41 c8 0d bd
       -0.07162238 0.04343688 0.036661606 -0.034614805
0001e0 48 96 f2 bb 5f 43 82 bb a4 08 1f bc 60 a0 a8 ba
       -0.007403169 -0.0039753164 -0.00970665 -0.0012865178
0001f0 40 8a 35 bd 58 af 1d bd 19 04 a0 3b a8 e5 3c 3c
       -0.0443213 -0.0384973 0.004883301 0.011529364
000200 69 ee 28 3d cb 5d d0 bc 1a 94 e3 3c 6c b1 61 bd
       0.04124299 -0.025435349 0.027780581 -0.055100843
000210 50 d0 4e bd 94 2d 27 bc 8a 44 e4 bc 2d f4 7b bd
       -0.05049163 -0.010203738 -0.027864713 -0.06151216
000220 38 4a 9e 3c d8 f3 68 bc 05 21 01 3d 49 9c 80 bc
       0.0193225 -0.014218293 0.03152563 -0.015699523
000230 17 c4 07 bd b0 75 b3 bb 1d f7 5f bd 6e ac 25 bd
       -0.03314599 -0.005476676 -0.054679025 -0.040447645
000240 35 46 84 bd fc e5 47 bd c0 36 8b ba 61 63 23 bc
       -0.064587034 -0.048803315 -0.0010621175 -0.009972424
000250 7c 87 09 bd e7 b4 6e bd 8e 1a 60 bd 7f 5d 76 bc
       -0.033576474 -0.05827799 -0.054712825 -0.01503694
000260 8a af 26 bd 70 61 4c 3c f4 17 62 bd 17 22 c4 3b
       -0.04069475 0.012474403 -0.055198625 0.005985509
000270 7e 47 00 3b f2 75 aa 3c 7a 77 5f bc 0c ee 57 bc
       0.0019573863 0.020808194 -0.013639325 -0.013179313
000280 e2 81 0d bd ce 63 4e bc 85 a2 2c bd 4d fa 41 bd
       -0.034547694 -0.0125970375 -0.04214718 -0.047357846
000290 2a 9e ed 3b b5 df e8 bc 43 c5 b1 bc f8 5d 12 bd
       0.0072515206 -0.028426984 -0.021700507 -0.035734147
0002a0 6d 6c 83 bc e1 fb 76 3b 03 4c 32 bc b8 9d c5 bc
       -0.016042912 0.0037686753 -0.01088238 -0.024123058
0002b0 42 32 57 bd 43 90 84 bc d1 bd 0b 3d 35 4c 17 3d
       -0.052538164 -0.01618207 0.03411657 0.03693791
0002c0 6c c7 d5 bc 6e 01 aa bb d1 2c b7 bc 00 62 84 39
       -0.026096068 -0.0051881587 -0.022360237 0.00025250018
0002d0 20 ae 14 3c e0 d0 35 bb d8 3c 9a bd 3e 09 f4 3c
       0.009074718 -0.0027742907 -0.07531136 0.029789563
0002e0 03 47 67 3d e3 f8 8e bd 94 50 43 3c b1 ff f5 bc
       0.056464206 -0.06981065 0.011921067 -0.03002915
0002f0 f0 9d 7a bc c2 cc b9 3c 71 a3 1c 3d bc 05 e7 bc
       -0.015296444 0.022680644 0.038241807 -0.028200977
000300 d7 9c 56 bd 4d 6f 00 bc a1 c5 28 3d c0 ca 2a bd
       -0.052395668 -0.007839036 0.0412041 -0.041697264
000310 16 a2 78 bc 07 8f 55 bd 46 b4 ef bc 3b 2a 44 bb
       -0.015175363 -0.052138355 -0.029260766 -0.0029932398
000320 55 7f 96 bc 4a 48 a4 bc 6c f0 30 bc c4 d5 0c 3c
       -0.018371264 -0.020054001 -0.010799509 0.008595888
000330 de 78 ff 3c 49 91 7e bd 8b 8b 2c 3b 90 d6 89 3c
       0.031185564 -0.062150273 0.0026328291 0.016825944
000340 57 c6 2a bd 2c a9 3d bc d8 7c a2 bb c0 49 99 ba
       -0.041693058 -0.011575978 -0.00495873 -0.0011694953
000350 6c 67 ad b9 c7 c5 4e bc 46 33 fc 3c 9b ec 4a bd
       -0.00033074187 -0.012620396 0.030786168 -0.04954205
000360 15 87 3a bd ea d6 5c bd ff 76 9b bc 3a 33 3b bc
       -0.04553898 -0.053915896 -0.01897764 -0.011425788
000370 c8 8c fa bc 97 c6 c9 bc 1c c1 07 bd 10 de 32 bc
       -0.030584708 -0.024630828 -0.033143148 -0.010917202
000380 b2 ba 4b bc d4 07 31 3c e0 fd c9 ba 6a f9 cb 3c
       -0.012434648 0.010805089 -0.0015410744 0.024899203
000390 cc 8f 0f bd d1 a3 10 bd da d7 9f 3c 91 de 8c bc
       -0.035049245 -0.035312477 0.019512106 -0.017195972
0003a0 f1 ed a0 bc 72 ee af 3c 3a 0c 81 bc 16 5d 95 3c
       -0.01964471 0.021476004 -0.0157529 0.018232863
0003b0 90 28 f9 3a 6e 1b 58 bc 46 99 a8 bc a8 d2 3e bd
       0.0019009281 -0.0131901335 -0.020580899 -0.046587616
0003c0 07 09 14 3d e6 16 03 3d f2 2f 75 3c 57 79 d8 bc
       0.03614142 0.03200426 0.014965044 -0.026425047
0003d0 d1 01 c5 3b 39 d2 85 ba 99 bc 0a 3d 99 52 64 bc
       0.0060121794 -0.0010209746 0.033871267 -0.013935708
0003e0 78 12 3b bc 67 ab 60 bc 18 43 33 bc bd 47 ce bc
       -0.0114179775 -0.0137127405 -0.010941289 -0.025180692
0003f0 50 11 11 bb c0 8a af ba 0c f5 2a bd 5a f9 43 bd
       -0.0022135563 -0.0013392791 -0.0417376 -0.047845222

fc4.bias f4 [64]
000000 0f 5c 99 bd 3f 99 cb bd 9b 73 04 c0 b8 d4 12 bc
       -0.07488262 -0.09941339 -2.069556 -0.008961849
000010 c6 f8 2b bc 7e 98 99 bd a7 eb af bd 30 54 da bc
       -0.010496324 -0.07499789 -0.08589869 -0.026651472
000020 49 8d dd bd 58 5b c6 bd 64 da c0 be 77 28 84 3f
       -0.10817964 -0.09685391 -0.3766662 1.0324849
000030 9c 42 02 3e e6 75 af bd e7 03 fb bd fe 56 1c bd
       0.12720722 -0.08567409 -0.12256604 -0.0381689
000040 07 a5 3b bd 88 55 2c bd d3 5f 6f bd 1a 97 84 bd
       -0.04581168 -0.042073756 -0.058440994 -0.06474133
000050 ef 7b 0e 3d 8d 7e 8e bd c2 49 19 bd 9c c1 90 bd
       0.03478616 -0.069577314 -0.037423857 -0.07068178
000060 72 cc 6d bd 18 12 a6 40 71 0a 82 bd 3d ac cd bd
       -0.058056302 5.1897087 -0.06349648 -0.100426175
000070 d9 44 20 c0 89 f3 7f bd 8a 0f 32 bc dc 1a 1a be
       -2.5042021 -0.062488113 -0.010867963 -0.15049309
000080 36 b2 ef bd d3 19 ab bd fb 9d 6d bd e3 81 b2 bb
       -0.11703913 -0.08354535 -0.05801199 -0.0054476126
000090 9f 66 95 bc 53 9d bd bd 5e 3a 96 3a f6 7f 24 bd
       -0.01823741 -0.09258523 0.0011461487 -0.040161096
0000a0 f6 a6 21 bd be 34 cd bd 15 9e e2 3d d4 db 69 bc
       -0.039465867 -0.100198254 0.11065308 -0.0142736025
0000b0 9d 2f cd bd 32 cf e1 3f 3f ec 41 bd 0c 34 87 40
       -0.10018847 1.7641356 -0.047344442 4.2251034
0000c0 0c ed 24 bd ab 39 e1 bd 76 89 85 bc 32 80 20 3f
       -0.040265128 -0.109973274 -0.016300898 0.6269561
0000d0 4f 9d d4 bc 13 c8 15 3e 9a e3 73 40 d8 63 d5 bc
       -0.025953917 0.14627104 3.8107667 -0.026048586
0000e0 67 1d d6 3f 0d 9e dc bd 38 96 6b bd dc fa 84 bd
       1.6727723 -0.10772333 -0.057516307 -0.0649316
0000f0 17 cf a6 3d 19 48 19 bd e9 7a 49 bd 50 6e 1c bd
       0.08144968 -0.037422273 -0.049189482 -0.03819114
